node {
  name: "global/NoOp"
  op: "NoOp"
  device: "/device:CPU:0"
}
node {
  name: "global/learning_rate"
  op: "Const"
  device: "/device:CPU:0"
  attr {
    key: "_output_shapes"
    value {
      list {
        shape {
        }
      }
    }
  }
  attr {
    key: "dtype"
    value {
      type: DT_FLOAT
    }
  }
  attr {
    key: "value"
    value {
      tensor {
        dtype: DT_FLOAT
        tensor_shape {
        }
        float_val: 4.999999873689376e-05
      }
    }
  }
}
node {
  name: "global/obs_embed/embeddings/Initializer/random_uniform/shape"
  op: "Const"
  attr {
    key: "_class"
    value {
      list {
        s: "loc:@global/obs_embed/embeddings"
      }
    }
  }
  attr {
    key: "_output_shapes"
    value {
      list {
        shape {
          dim {
            size: 2
          }
        }
      }
    }
  }
  attr {
    key: "dtype"
    value {
      type: DT_INT32
    }
  }
  attr {
    key: "value"
    value {
      tensor {
        dtype: DT_INT32
        tensor_shape {
          dim {
            size: 2
          }
        }
        tensor_content: "\024\000\000\000\017\000\000\000"
      }
    }
  }
}
node {
  name: "global/obs_embed/embeddings/Initializer/random_uniform/min"
  op: "Const"
  attr {
    key: "_class"
    value {
      list {
        s: "loc:@global/obs_embed/embeddings"
      }
    }
  }
  attr {
    key: "_output_shapes"
    value {
      list {
        shape {
        }
      }
    }
  }
  attr {
    key: "dtype"
    value {
      type: DT_FLOAT
    }
  }
  attr {
    key: "value"
    value {
      tensor {
        dtype: DT_FLOAT
        tensor_shape {
        }
        float_val: -1.0
      }
    }
  }
}
node {
  name: "global/obs_embed/embeddings/Initializer/random_uniform/max"
  op: "Const"
  attr {
    key: "_class"
    value {
      list {
        s: "loc:@global/obs_embed/embeddings"
      }
    }
  }
  attr {
    key: "_output_shapes"
    value {
      list {
        shape {
        }
      }
    }
  }
  attr {
    key: "dtype"
    value {
      type: DT_FLOAT
    }
  }
  attr {
    key: "value"
    value {
      tensor {
        dtype: DT_FLOAT
        tensor_shape {
        }
        float_val: 1.0
      }
    }
  }
}
node {
  name: "global/obs_embed/embeddings/Initializer/random_uniform/RandomUniform"
  op: "RandomUniform"
  input: "global/obs_embed/embeddings/Initializer/random_uniform/shape"
  attr {
    key: "T"
    value {
      type: DT_INT32
    }
  }
  attr {
    key: "_class"
    value {
      list {
        s: "loc:@global/obs_embed/embeddings"
      }
    }
  }
  attr {
    key: "_output_shapes"
    value {
      list {
        shape {
          dim {
            size: 20
          }
          dim {
            size: 15
          }
        }
      }
    }
  }
  attr {
    key: "dtype"
    value {
      type: DT_FLOAT
    }
  }
  attr {
    key: "seed"
    value {
      i: 0
    }
  }
  attr {
    key: "seed2"
    value {
      i: 0
    }
  }
}
node {
  name: "global/obs_embed/embeddings/Initializer/random_uniform/sub"
  op: "Sub"
  input: "global/obs_embed/embeddings/Initializer/random_uniform/max"
  input: "global/obs_embed/embeddings/Initializer/random_uniform/min"
  attr {
    key: "T"
    value {
      type: DT_FLOAT
    }
  }
  attr {
    key: "_class"
    value {
      list {
        s: "loc:@global/obs_embed/embeddings"
      }
    }
  }
  attr {
    key: "_output_shapes"
    value {
      list {
        shape {
        }
      }
    }
  }
}
node {
  name: "global/obs_embed/embeddings/Initializer/random_uniform/mul"
  op: "Mul"
  input: "global/obs_embed/embeddings/Initializer/random_uniform/RandomUniform"
  input: "global/obs_embed/embeddings/Initializer/random_uniform/sub"
  attr {
    key: "T"
    value {
      type: DT_FLOAT
    }
  }
  attr {
    key: "_class"
    value {
      list {
        s: "loc:@global/obs_embed/embeddings"
      }
    }
  }
  attr {
    key: "_output_shapes"
    value {
      list {
        shape {
          dim {
            size: 20
          }
          dim {
            size: 15
          }
        }
      }
    }
  }
}
node {
  name: "global/obs_embed/embeddings/Initializer/random_uniform"
  op: "Add"
  input: "global/obs_embed/embeddings/Initializer/random_uniform/mul"
  input: "global/obs_embed/embeddings/Initializer/random_uniform/min"
  attr {
    key: "T"
    value {
      type: DT_FLOAT
    }
  }
  attr {
    key: "_class"
    value {
      list {
        s: "loc:@global/obs_embed/embeddings"
      }
    }
  }
  attr {
    key: "_output_shapes"
    value {
      list {
        shape {
          dim {
            size: 20
          }
          dim {
            size: 15
          }
        }
      }
    }
  }
}
node {
  name: "global/obs_embed/embeddings"
  op: "VarHandleOp"
  device: "/device:CPU:0"
  attr {
    key: "_class"
    value {
      list {
        s: "loc:@global/obs_embed/embeddings"
      }
    }
  }
  attr {
    key: "_output_shapes"
    value {
      list {
        shape {
        }
      }
    }
  }
  attr {
    key: "container"
    value {
      s: ""
    }
  }
  attr {
    key: "dtype"
    value {
      type: DT_FLOAT
    }
  }
  attr {
    key: "shape"
    value {
      shape {
        dim {
          size: 20
        }
        dim {
          size: 15
        }
      }
    }
  }
  attr {
    key: "shared_name"
    value {
      s: "global/obs_embed/embeddings"
    }
  }
}
node {
  name: "global/obs_embed/embeddings/IsInitialized/VarIsInitializedOp"
  op: "VarIsInitializedOp"
  input: "global/obs_embed/embeddings"
  device: "/device:CPU:0"
  attr {
    key: "_output_shapes"
    value {
      list {
        shape {
        }
      }
    }
  }
}
node {
  name: "global/obs_embed/embeddings/Assign"
  op: "AssignVariableOp"
  input: "global/obs_embed/embeddings"
  input: "global/obs_embed/embeddings/Initializer/random_uniform"
  device: "/device:CPU:0"
  attr {
    key: "dtype"
    value {
      type: DT_FLOAT
    }
  }
}
node {
  name: "global/obs_embed/embeddings/Read/ReadVariableOp"
  op: "ReadVariableOp"
  input: "global/obs_embed/embeddings"
  device: "/device:CPU:0"
  attr {
    key: "_output_shapes"
    value {
      list {
        shape {
          dim {
            size: 20
          }
          dim {
            size: 15
          }
        }
      }
    }
  }
  attr {
    key: "dtype"
    value {
      type: DT_FLOAT
    }
  }
}
node {
  name: "global/Fill/dims"
  op: "Const"
  device: "/device:CPU:0"
  attr {
    key: "_output_shapes"
    value {
      list {
        shape {
          dim {
            size: 1
          }
        }
      }
    }
  }
  attr {
    key: "dtype"
    value {
      type: DT_INT32
    }
  }
  attr {
    key: "value"
    value {
      tensor {
        dtype: DT_INT32
        tensor_shape {
          dim {
            size: 1
          }
        }
        int_val: 4
      }
    }
  }
}
node {
  name: "global/Fill/value"
  op: "Const"
  device: "/device:CPU:0"
  attr {
    key: "_output_shapes"
    value {
      list {
        shape {
        }
      }
    }
  }
  attr {
    key: "dtype"
    value {
      type: DT_INT32
    }
  }
  attr {
    key: "value"
    value {
      tensor {
        dtype: DT_INT32
        tensor_shape {
        }
        int_val: 0
      }
    }
  }
}
node {
  name: "global/Fill"
  op: "Fill"
  input: "global/Fill/dims"
  input: "global/Fill/value"
  device: "/device:CPU:0"
  attr {
    key: "T"
    value {
      type: DT_INT32
    }
  }
  attr {
    key: "_output_shapes"
    value {
      list {
        shape {
          dim {
            size: 4
          }
        }
      }
    }
  }
  attr {
    key: "index_type"
    value {
      type: DT_INT32
    }
  }
}
node {
  name: "global/policy/rnn/Const"
  op: "Const"
  device: "/device:CPU:0"
  attr {
    key: "_output_shapes"
    value {
      list {
        shape {
        }
      }
    }
  }
  attr {
    key: "dtype"
    value {
      type: DT_INT32
    }
  }
  attr {
    key: "value"
    value {
      tensor {
        dtype: DT_INT32
        tensor_shape {
        }
        int_val: 0
      }
    }
  }
}
node {
  name: "global/policy/rnn/MultiRNNCellZeroState/BasicLSTMCellZeroState/Const"
  op: "Const"
  device: "/device:CPU:0"
  attr {
    key: "_output_shapes"
    value {
      list {
        shape {
          dim {
            size: 1
          }
        }
      }
    }
  }
  attr {
    key: "dtype"
    value {
      type: DT_INT32
    }
  }
  attr {
    key: "value"
    value {
      tensor {
        dtype: DT_INT32
        tensor_shape {
          dim {
            size: 1
          }
        }
        int_val: 4
      }
    }
  }
}
node {
  name: "global/policy/rnn/MultiRNNCellZeroState/BasicLSTMCellZeroState/Const_1"
  op: "Const"
  device: "/device:CPU:0"
  attr {
    key: "_output_shapes"
    value {
      list {
        shape {
          dim {
            size: 1
          }
        }
      }
    }
  }
  attr {
    key: "dtype"
    value {
      type: DT_INT32
    }
  }
  attr {
    key: "value"
    value {
      tensor {
        dtype: DT_INT32
        tensor_shape {
          dim {
            size: 1
          }
        }
        int_val: 50
      }
    }
  }
}
node {
  name: "global/policy/rnn/MultiRNNCellZeroState/BasicLSTMCellZeroState/concat/axis"
  op: "Const"
  device: "/device:CPU:0"
  attr {
    key: "_output_shapes"
    value {
      list {
        shape {
        }
      }
    }
  }
  attr {
    key: "dtype"
    value {
      type: DT_INT32
    }
  }
  attr {
    key: "value"
    value {
      tensor {
        dtype: DT_INT32
        tensor_shape {
        }
        int_val: 0
      }
    }
  }
}
node {
  name: "global/policy/rnn/MultiRNNCellZeroState/BasicLSTMCellZeroState/concat"
  op: "ConcatV2"
  input: "global/policy/rnn/MultiRNNCellZeroState/BasicLSTMCellZeroState/Const"
  input: "global/policy/rnn/MultiRNNCellZeroState/BasicLSTMCellZeroState/Const_1"
  input: "global/policy/rnn/MultiRNNCellZeroState/BasicLSTMCellZeroState/concat/axis"
  device: "/device:CPU:0"
  attr {
    key: "N"
    value {
      i: 2
    }
  }
  attr {
    key: "T"
    value {
      type: DT_INT32
    }
  }
  attr {
    key: "Tidx"
    value {
      type: DT_INT32
    }
  }
  attr {
    key: "_output_shapes"
    value {
      list {
        shape {
          dim {
            size: 2
          }
        }
      }
    }
  }
}
node {
  name: "global/policy/rnn/MultiRNNCellZeroState/BasicLSTMCellZeroState/zeros/Const"
  op: "Const"
  device: "/device:CPU:0"
  attr {
    key: "_output_shapes"
    value {
      list {
        shape {
        }
      }
    }
  }
  attr {
    key: "dtype"
    value {
      type: DT_FLOAT
    }
  }
  attr {
    key: "value"
    value {
      tensor {
        dtype: DT_FLOAT
        tensor_shape {
        }
        float_val: 0.0
      }
    }
  }
}
node {
  name: "global/policy/rnn/MultiRNNCellZeroState/BasicLSTMCellZeroState/zeros"
  op: "Fill"
  input: "global/policy/rnn/MultiRNNCellZeroState/BasicLSTMCellZeroState/concat"
  input: "global/policy/rnn/MultiRNNCellZeroState/BasicLSTMCellZeroState/zeros/Const"
  device: "/device:CPU:0"
  attr {
    key: "T"
    value {
      type: DT_FLOAT
    }
  }
  attr {
    key: "_output_shapes"
    value {
      list {
        shape {
          dim {
            size: 4
          }
          dim {
            size: 50
          }
        }
      }
    }
  }
  attr {
    key: "index_type"
    value {
      type: DT_INT32
    }
  }
}
node {
  name: "global/policy/rnn/MultiRNNCellZeroState/BasicLSTMCellZeroState/Const_2"
  op: "Const"
  device: "/device:CPU:0"
  attr {
    key: "_output_shapes"
    value {
      list {
        shape {
          dim {
            size: 1
          }
        }
      }
    }
  }
  attr {
    key: "dtype"
    value {
      type: DT_INT32
    }
  }
  attr {
    key: "value"
    value {
      tensor {
        dtype: DT_INT32
        tensor_shape {
          dim {
            size: 1
          }
        }
        int_val: 4
      }
    }
  }
}
node {
  name: "global/policy/rnn/MultiRNNCellZeroState/BasicLSTMCellZeroState/Const_3"
  op: "Const"
  device: "/device:CPU:0"
  attr {
    key: "_output_shapes"
    value {
      list {
        shape {
          dim {
            size: 1
          }
        }
      }
    }
  }
  attr {
    key: "dtype"
    value {
      type: DT_INT32
    }
  }
  attr {
    key: "value"
    value {
      tensor {
        dtype: DT_INT32
        tensor_shape {
          dim {
            size: 1
          }
        }
        int_val: 50
      }
    }
  }
}
node {
  name: "global/policy/rnn/MultiRNNCellZeroState/BasicLSTMCellZeroState/Const_4"
  op: "Const"
  device: "/device:CPU:0"
  attr {
    key: "_output_shapes"
    value {
      list {
        shape {
          dim {
            size: 1
          }
        }
      }
    }
  }
  attr {
    key: "dtype"
    value {
      type: DT_INT32
    }
  }
  attr {
    key: "value"
    value {
      tensor {
        dtype: DT_INT32
        tensor_shape {
          dim {
            size: 1
          }
        }
        int_val: 4
      }
    }
  }
}
node {
  name: "global/policy/rnn/MultiRNNCellZeroState/BasicLSTMCellZeroState/Const_5"
  op: "Const"
  device: "/device:CPU:0"
  attr {
    key: "_output_shapes"
    value {
      list {
        shape {
          dim {
            size: 1
          }
        }
      }
    }
  }
  attr {
    key: "dtype"
    value {
      type: DT_INT32
    }
  }
  attr {
    key: "value"
    value {
      tensor {
        dtype: DT_INT32
        tensor_shape {
          dim {
            size: 1
          }
        }
        int_val: 50
      }
    }
  }
}
node {
  name: "global/policy/rnn/MultiRNNCellZeroState/BasicLSTMCellZeroState/concat_1/axis"
  op: "Const"
  device: "/device:CPU:0"
  attr {
    key: "_output_shapes"
    value {
      list {
        shape {
        }
      }
    }
  }
  attr {
    key: "dtype"
    value {
      type: DT_INT32
    }
  }
  attr {
    key: "value"
    value {
      tensor {
        dtype: DT_INT32
        tensor_shape {
        }
        int_val: 0
      }
    }
  }
}
node {
  name: "global/policy/rnn/MultiRNNCellZeroState/BasicLSTMCellZeroState/concat_1"
  op: "ConcatV2"
  input: "global/policy/rnn/MultiRNNCellZeroState/BasicLSTMCellZeroState/Const_4"
  input: "global/policy/rnn/MultiRNNCellZeroState/BasicLSTMCellZeroState/Const_5"
  input: "global/policy/rnn/MultiRNNCellZeroState/BasicLSTMCellZeroState/concat_1/axis"
  device: "/device:CPU:0"
  attr {
    key: "N"
    value {
      i: 2
    }
  }
  attr {
    key: "T"
    value {
      type: DT_INT32
    }
  }
  attr {
    key: "Tidx"
    value {
      type: DT_INT32
    }
  }
  attr {
    key: "_output_shapes"
    value {
      list {
        shape {
          dim {
            size: 2
          }
        }
      }
    }
  }
}
node {
  name: "global/policy/rnn/MultiRNNCellZeroState/BasicLSTMCellZeroState/zeros_1/Const"
  op: "Const"
  device: "/device:CPU:0"
  attr {
    key: "_output_shapes"
    value {
      list {
        shape {
        }
      }
    }
  }
  attr {
    key: "dtype"
    value {
      type: DT_FLOAT
    }
  }
  attr {
    key: "value"
    value {
      tensor {
        dtype: DT_FLOAT
        tensor_shape {
        }
        float_val: 0.0
      }
    }
  }
}
node {
  name: "global/policy/rnn/MultiRNNCellZeroState/BasicLSTMCellZeroState/zeros_1"
  op: "Fill"
  input: "global/policy/rnn/MultiRNNCellZeroState/BasicLSTMCellZeroState/concat_1"
  input: "global/policy/rnn/MultiRNNCellZeroState/BasicLSTMCellZeroState/zeros_1/Const"
  device: "/device:CPU:0"
  attr {
    key: "T"
    value {
      type: DT_FLOAT
    }
  }
  attr {
    key: "_output_shapes"
    value {
      list {
        shape {
          dim {
            size: 4
          }
          dim {
            size: 50
          }
        }
      }
    }
  }
  attr {
    key: "index_type"
    value {
      type: DT_INT32
    }
  }
}
node {
  name: "global/policy/rnn/MultiRNNCellZeroState/BasicLSTMCellZeroState/Const_6"
  op: "Const"
  device: "/device:CPU:0"
  attr {
    key: "_output_shapes"
    value {
      list {
        shape {
          dim {
            size: 1
          }
        }
      }
    }
  }
  attr {
    key: "dtype"
    value {
      type: DT_INT32
    }
  }
  attr {
    key: "value"
    value {
      tensor {
        dtype: DT_INT32
        tensor_shape {
          dim {
            size: 1
          }
        }
        int_val: 4
      }
    }
  }
}
node {
  name: "global/policy/rnn/MultiRNNCellZeroState/BasicLSTMCellZeroState/Const_7"
  op: "Const"
  device: "/device:CPU:0"
  attr {
    key: "_output_shapes"
    value {
      list {
        shape {
          dim {
            size: 1
          }
        }
      }
    }
  }
  attr {
    key: "dtype"
    value {
      type: DT_INT32
    }
  }
  attr {
    key: "value"
    value {
      tensor {
        dtype: DT_INT32
        tensor_shape {
          dim {
            size: 1
          }
        }
        int_val: 50
      }
    }
  }
}
node {
  name: "global/policy/rnn/MultiRNNCellZeroState/BasicLSTMCellZeroState_1/Const"
  op: "Const"
  device: "/device:CPU:0"
  attr {
    key: "_output_shapes"
    value {
      list {
        shape {
          dim {
            size: 1
          }
        }
      }
    }
  }
  attr {
    key: "dtype"
    value {
      type: DT_INT32
    }
  }
  attr {
    key: "value"
    value {
      tensor {
        dtype: DT_INT32
        tensor_shape {
          dim {
            size: 1
          }
        }
        int_val: 4
      }
    }
  }
}
node {
  name: "global/policy/rnn/MultiRNNCellZeroState/BasicLSTMCellZeroState_1/Const_1"
  op: "Const"
  device: "/device:CPU:0"
  attr {
    key: "_output_shapes"
    value {
      list {
        shape {
          dim {
            size: 1
          }
        }
      }
    }
  }
  attr {
    key: "dtype"
    value {
      type: DT_INT32
    }
  }
  attr {
    key: "value"
    value {
      tensor {
        dtype: DT_INT32
        tensor_shape {
          dim {
            size: 1
          }
        }
        int_val: 50
      }
    }
  }
}
node {
  name: "global/policy/rnn/MultiRNNCellZeroState/BasicLSTMCellZeroState_1/concat/axis"
  op: "Const"
  device: "/device:CPU:0"
  attr {
    key: "_output_shapes"
    value {
      list {
        shape {
        }
      }
    }
  }
  attr {
    key: "dtype"
    value {
      type: DT_INT32
    }
  }
  attr {
    key: "value"
    value {
      tensor {
        dtype: DT_INT32
        tensor_shape {
        }
        int_val: 0
      }
    }
  }
}
node {
  name: "global/policy/rnn/MultiRNNCellZeroState/BasicLSTMCellZeroState_1/concat"
  op: "ConcatV2"
  input: "global/policy/rnn/MultiRNNCellZeroState/BasicLSTMCellZeroState_1/Const"
  input: "global/policy/rnn/MultiRNNCellZeroState/BasicLSTMCellZeroState_1/Const_1"
  input: "global/policy/rnn/MultiRNNCellZeroState/BasicLSTMCellZeroState_1/concat/axis"
  device: "/device:CPU:0"
  attr {
    key: "N"
    value {
      i: 2
    }
  }
  attr {
    key: "T"
    value {
      type: DT_INT32
    }
  }
  attr {
    key: "Tidx"
    value {
      type: DT_INT32
    }
  }
  attr {
    key: "_output_shapes"
    value {
      list {
        shape {
          dim {
            size: 2
          }
        }
      }
    }
  }
}
node {
  name: "global/policy/rnn/MultiRNNCellZeroState/BasicLSTMCellZeroState_1/zeros/Const"
  op: "Const"
  device: "/device:CPU:0"
  attr {
    key: "_output_shapes"
    value {
      list {
        shape {
        }
      }
    }
  }
  attr {
    key: "dtype"
    value {
      type: DT_FLOAT
    }
  }
  attr {
    key: "value"
    value {
      tensor {
        dtype: DT_FLOAT
        tensor_shape {
        }
        float_val: 0.0
      }
    }
  }
}
node {
  name: "global/policy/rnn/MultiRNNCellZeroState/BasicLSTMCellZeroState_1/zeros"
  op: "Fill"
  input: "global/policy/rnn/MultiRNNCellZeroState/BasicLSTMCellZeroState_1/concat"
  input: "global/policy/rnn/MultiRNNCellZeroState/BasicLSTMCellZeroState_1/zeros/Const"
  device: "/device:CPU:0"
  attr {
    key: "T"
    value {
      type: DT_FLOAT
    }
  }
  attr {
    key: "_output_shapes"
    value {
      list {
        shape {
          dim {
            size: 4
          }
          dim {
            size: 50
          }
        }
      }
    }
  }
  attr {
    key: "index_type"
    value {
      type: DT_INT32
    }
  }
}
node {
  name: "global/policy/rnn/MultiRNNCellZeroState/BasicLSTMCellZeroState_1/Const_2"
  op: "Const"
  device: "/device:CPU:0"
  attr {
    key: "_output_shapes"
    value {
      list {
        shape {
          dim {
            size: 1
          }
        }
      }
    }
  }
  attr {
    key: "dtype"
    value {
      type: DT_INT32
    }
  }
  attr {
    key: "value"
    value {
      tensor {
        dtype: DT_INT32
        tensor_shape {
          dim {
            size: 1
          }
        }
        int_val: 4
      }
    }
  }
}
node {
  name: "global/policy/rnn/MultiRNNCellZeroState/BasicLSTMCellZeroState_1/Const_3"
  op: "Const"
  device: "/device:CPU:0"
  attr {
    key: "_output_shapes"
    value {
      list {
        shape {
          dim {
            size: 1
          }
        }
      }
    }
  }
  attr {
    key: "dtype"
    value {
      type: DT_INT32
    }
  }
  attr {
    key: "value"
    value {
      tensor {
        dtype: DT_INT32
        tensor_shape {
          dim {
            size: 1
          }
        }
        int_val: 50
      }
    }
  }
}
node {
  name: "global/policy/rnn/MultiRNNCellZeroState/BasicLSTMCellZeroState_1/Const_4"
  op: "Const"
  device: "/device:CPU:0"
  attr {
    key: "_output_shapes"
    value {
      list {
        shape {
          dim {
            size: 1
          }
        }
      }
    }
  }
  attr {
    key: "dtype"
    value {
      type: DT_INT32
    }
  }
  attr {
    key: "value"
    value {
      tensor {
        dtype: DT_INT32
        tensor_shape {
          dim {
            size: 1
          }
        }
        int_val: 4
      }
    }
  }
}
node {
  name: "global/policy/rnn/MultiRNNCellZeroState/BasicLSTMCellZeroState_1/Const_5"
  op: "Const"
  device: "/device:CPU:0"
  attr {
    key: "_output_shapes"
    value {
      list {
        shape {
          dim {
            size: 1
          }
        }
      }
    }
  }
  attr {
    key: "dtype"
    value {
      type: DT_INT32
    }
  }
  attr {
    key: "value"
    value {
      tensor {
        dtype: DT_INT32
        tensor_shape {
          dim {
            size: 1
          }
        }
        int_val: 50
      }
    }
  }
}
node {
  name: "global/policy/rnn/MultiRNNCellZeroState/BasicLSTMCellZeroState_1/concat_1/axis"
  op: "Const"
  device: "/device:CPU:0"
  attr {
    key: "_output_shapes"
    value {
      list {
        shape {
        }
      }
    }
  }
  attr {
    key: "dtype"
    value {
      type: DT_INT32
    }
  }
  attr {
    key: "value"
    value {
      tensor {
        dtype: DT_INT32
        tensor_shape {
        }
        int_val: 0
      }
    }
  }
}
node {
  name: "global/policy/rnn/MultiRNNCellZeroState/BasicLSTMCellZeroState_1/concat_1"
  op: "ConcatV2"
  input: "global/policy/rnn/MultiRNNCellZeroState/BasicLSTMCellZeroState_1/Const_4"
  input: "global/policy/rnn/MultiRNNCellZeroState/BasicLSTMCellZeroState_1/Const_5"
  input: "global/policy/rnn/MultiRNNCellZeroState/BasicLSTMCellZeroState_1/concat_1/axis"
  device: "/device:CPU:0"
  attr {
    key: "N"
    value {
      i: 2
    }
  }
  attr {
    key: "T"
    value {
      type: DT_INT32
    }
  }
  attr {
    key: "Tidx"
    value {
      type: DT_INT32
    }
  }
  attr {
    key: "_output_shapes"
    value {
      list {
        shape {
          dim {
            size: 2
          }
        }
      }
    }
  }
}
node {
  name: "global/policy/rnn/MultiRNNCellZeroState/BasicLSTMCellZeroState_1/zeros_1/Const"
  op: "Const"
  device: "/device:CPU:0"
  attr {
    key: "_output_shapes"
    value {
      list {
        shape {
        }
      }
    }
  }
  attr {
    key: "dtype"
    value {
      type: DT_FLOAT
    }
  }
  attr {
    key: "value"
    value {
      tensor {
        dtype: DT_FLOAT
        tensor_shape {
        }
        float_val: 0.0
      }
    }
  }
}
node {
  name: "global/policy/rnn/MultiRNNCellZeroState/BasicLSTMCellZeroState_1/zeros_1"
  op: "Fill"
  input: "global/policy/rnn/MultiRNNCellZeroState/BasicLSTMCellZeroState_1/concat_1"
  input: "global/policy/rnn/MultiRNNCellZeroState/BasicLSTMCellZeroState_1/zeros_1/Const"
  device: "/device:CPU:0"
  attr {
    key: "T"
    value {
      type: DT_FLOAT
    }
  }
  attr {
    key: "_output_shapes"
    value {
      list {
        shape {
          dim {
            size: 4
          }
          dim {
            size: 50
          }
        }
      }
    }
  }
  attr {
    key: "index_type"
    value {
      type: DT_INT32
    }
  }
}
node {
  name: "global/policy/rnn/MultiRNNCellZeroState/BasicLSTMCellZeroState_1/Const_6"
  op: "Const"
  device: "/device:CPU:0"
  attr {
    key: "_output_shapes"
    value {
      list {
        shape {
          dim {
            size: 1
          }
        }
      }
    }
  }
  attr {
    key: "dtype"
    value {
      type: DT_INT32
    }
  }
  attr {
    key: "value"
    value {
      tensor {
        dtype: DT_INT32
        tensor_shape {
          dim {
            size: 1
          }
        }
        int_val: 4
      }
    }
  }
}
node {
  name: "global/policy/rnn/MultiRNNCellZeroState/BasicLSTMCellZeroState_1/Const_7"
  op: "Const"
  device: "/device:CPU:0"
  attr {
    key: "_output_shapes"
    value {
      list {
        shape {
          dim {
            size: 1
          }
        }
      }
    }
  }
  attr {
    key: "dtype"
    value {
      type: DT_INT32
    }
  }
  attr {
    key: "value"
    value {
      tensor {
        dtype: DT_INT32
        tensor_shape {
          dim {
            size: 1
          }
        }
        int_val: 50
      }
    }
  }
}
node {
  name: "global/policy/rnn/zeros"
  op: "Const"
  device: "/device:CPU:0"
  attr {
    key: "_output_shapes"
    value {
      list {
        shape {
          dim {
            size: 4
          }
        }
      }
    }
  }
  attr {
    key: "dtype"
    value {
      type: DT_BOOL
    }
  }
  attr {
    key: "value"
    value {
      tensor {
        dtype: DT_BOOL
        tensor_shape {
          dim {
            size: 4
          }
        }
        bool_val: false
      }
    }
  }
}
node {
  name: "global/policy/rnn/ones"
  op: "Const"
  device: "/device:CPU:0"
  attr {
    key: "_output_shapes"
    value {
      list {
        shape {
          dim {
            size: 4
          }
        }
      }
    }
  }
  attr {
    key: "dtype"
    value {
      type: DT_INT32
    }
  }
  attr {
    key: "value"
    value {
      tensor {
        dtype: DT_INT32
        tensor_shape {
          dim {
            size: 4
          }
        }
        int_val: 1
      }
    }
  }
}
node {
  name: "global/policy/rnn/Gather"
  op: "ResourceGather"
  input: "global/obs_embed/embeddings"
  input: "global/Fill"
  device: "/device:CPU:0"
  attr {
    key: "Tindices"
    value {
      type: DT_INT32
    }
  }
  attr {
    key: "_output_shapes"
    value {
      list {
        shape {
          dim {
            size: 4
          }
          dim {
            size: 15
          }
        }
      }
    }
  }
  attr {
    key: "batch_dims"
    value {
      i: 0
    }
  }
  attr {
    key: "dtype"
    value {
      type: DT_FLOAT
    }
  }
  attr {
    key: "validate_indices"
    value {
      b: true
    }
  }
}
node {
  name: "global/policy/rnn/Identity"
  op: "Identity"
  input: "global/policy/rnn/Gather"
  device: "/device:CPU:0"
  attr {
    key: "T"
    value {
      type: DT_FLOAT
    }
  }
  attr {
    key: "_output_shapes"
    value {
      list {
        shape {
          dim {
            size: 4
          }
          dim {
            size: 15
          }
        }
      }
    }
  }
}
node {
  name: "global/policy/rnn/TensorArray/size"
  op: "Const"
  attr {
    key: "_output_shapes"
    value {
      list {
        shape {
        }
      }
    }
  }
  attr {
    key: "dtype"
    value {
      type: DT_INT32
    }
  }
  attr {
    key: "value"
    value {
      tensor {
        dtype: DT_INT32
        tensor_shape {
        }
        int_val: 0
      }
    }
  }
}
node {
  name: "global/policy/rnn/TensorArray"
  op: "TensorArrayV3"
  input: "global/policy/rnn/TensorArray/size"
  attr {
    key: "_output_shapes"
    value {
      list {
        shape {
          dim {
            size: 2
          }
        }
        shape {
        }
      }
    }
  }
  attr {
    key: "clear_after_read"
    value {
      b: true
    }
  }
  attr {
    key: "dtype"
    value {
      type: DT_INT32
    }
  }
  attr {
    key: "dynamic_size"
    value {
      b: true
    }
  }
  attr {
    key: "element_shape"
    value {
      shape {
        unknown_rank: true
      }
    }
  }
  attr {
    key: "identical_element_shapes"
    value {
      b: true
    }
  }
  attr {
    key: "tensor_array_name"
    value {
      s: ""
    }
  }
}
node {
  name: "global/policy/rnn/rnn_output_0/size"
  op: "Const"
  attr {
    key: "_output_shapes"
    value {
      list {
        shape {
        }
      }
    }
  }
  attr {
    key: "dtype"
    value {
      type: DT_INT32
    }
  }
  attr {
    key: "value"
    value {
      tensor {
        dtype: DT_INT32
        tensor_shape {
        }
        int_val: 0
      }
    }
  }
}
node {
  name: "global/policy/rnn/rnn_output_0"
  op: "TensorArrayV3"
  input: "global/policy/rnn/rnn_output_0/size"
  attr {
    key: "_output_shapes"
    value {
      list {
        shape {
          dim {
            size: 2
          }
        }
        shape {
        }
      }
    }
  }
  attr {
    key: "clear_after_read"
    value {
      b: true
    }
  }
  attr {
    key: "dtype"
    value {
      type: DT_FLOAT
    }
  }
  attr {
    key: "dynamic_size"
    value {
      b: true
    }
  }
  attr {
    key: "element_shape"
    value {
      shape {
        dim {
          size: 4
        }
        dim {
          size: 20
        }
      }
    }
  }
  attr {
    key: "identical_element_shapes"
    value {
      b: true
    }
  }
  attr {
    key: "tensor_array_name"
    value {
      s: ""
    }
  }
}
node {
  name: "global/policy/rnn/Const_1"
  op: "Const"
  device: "/device:CPU:0"
  attr {
    key: "_output_shapes"
    value {
      list {
        shape {
          dim {
            size: 1
          }
        }
      }
    }
  }
  attr {
    key: "dtype"
    value {
      type: DT_INT32
    }
  }
  attr {
    key: "value"
    value {
      tensor {
        dtype: DT_INT32
        tensor_shape {
          dim {
            size: 1
          }
        }
        int_val: 4
      }
    }
  }
}
node {
  name: "global/policy/rnn/Const_2"
  op: "Const"
  device: "/device:CPU:0"
  attr {
    key: "_output_shapes"
    value {
      list {
        shape {
          dim {
            size: 1
          }
        }
      }
    }
  }
  attr {
    key: "dtype"
    value {
      type: DT_INT32
    }
  }
  attr {
    key: "value"
    value {
      tensor {
        dtype: DT_INT32
        tensor_shape {
          dim {
            size: 1
          }
        }
        int_val: 20
      }
    }
  }
}
node {
  name: "global/policy/rnn/concat/axis"
  op: "Const"
  device: "/device:CPU:0"
  attr {
    key: "_output_shapes"
    value {
      list {
        shape {
        }
      }
    }
  }
  attr {
    key: "dtype"
    value {
      type: DT_INT32
    }
  }
  attr {
    key: "value"
    value {
      tensor {
        dtype: DT_INT32
        tensor_shape {
        }
        int_val: 0
      }
    }
  }
}
node {
  name: "global/policy/rnn/concat"
  op: "ConcatV2"
  input: "global/policy/rnn/Const_1"
  input: "global/policy/rnn/Const_2"
  input: "global/policy/rnn/concat/axis"
  device: "/device:CPU:0"
  attr {
    key: "N"
    value {
      i: 2
    }
  }
  attr {
    key: "T"
    value {
      type: DT_INT32
    }
  }
  attr {
    key: "Tidx"
    value {
      type: DT_INT32
    }
  }
  attr {
    key: "_output_shapes"
    value {
      list {
        shape {
          dim {
            size: 2
          }
        }
      }
    }
  }
}
node {
  name: "global/policy/rnn/zeros_1/Const"
  op: "Const"
  device: "/device:CPU:0"
  attr {
    key: "_output_shapes"
    value {
      list {
        shape {
        }
      }
    }
  }
  attr {
    key: "dtype"
    value {
      type: DT_FLOAT
    }
  }
  attr {
    key: "value"
    value {
      tensor {
        dtype: DT_FLOAT
        tensor_shape {
        }
        float_val: 0.0
      }
    }
  }
}
node {
  name: "global/policy/rnn/zeros_1"
  op: "Fill"
  input: "global/policy/rnn/concat"
  input: "global/policy/rnn/zeros_1/Const"
  device: "/device:CPU:0"
  attr {
    key: "T"
    value {
      type: DT_FLOAT
    }
  }
  attr {
    key: "_output_shapes"
    value {
      list {
        shape {
          dim {
            size: 4
          }
          dim {
            size: 20
          }
        }
      }
    }
  }
  attr {
    key: "index_type"
    value {
      type: DT_INT32
    }
  }
}
node {
  name: "global/policy/rnn/while/Enter"
  op: "Enter"
  input: "global/policy/rnn/Const"
  device: "/device:CPU:0"
  attr {
    key: "T"
    value {
      type: DT_INT32
    }
  }
  attr {
    key: "_output_shapes"
    value {
      list {
        shape {
        }
      }
    }
  }
  attr {
    key: "frame_name"
    value {
      s: "global/policy/rnn/while/while_context"
    }
  }
  attr {
    key: "is_constant"
    value {
      b: false
    }
  }
  attr {
    key: "parallel_iterations"
    value {
      i: 32
    }
  }
}
node {
  name: "global/policy/rnn/while/Enter_1"
  op: "Enter"
  input: "global/policy/rnn/zeros"
  device: "/device:CPU:0"
  attr {
    key: "T"
    value {
      type: DT_BOOL
    }
  }
  attr {
    key: "_output_shapes"
    value {
      list {
        shape {
          dim {
            size: 4
          }
        }
      }
    }
  }
  attr {
    key: "frame_name"
    value {
      s: "global/policy/rnn/while/while_context"
    }
  }
  attr {
    key: "is_constant"
    value {
      b: false
    }
  }
  attr {
    key: "parallel_iterations"
    value {
      i: 32
    }
  }
}
node {
  name: "global/policy/rnn/while/Enter_2"
  op: "Enter"
  input: "global/policy/rnn/Identity"
  device: "/device:CPU:0"
  attr {
    key: "T"
    value {
      type: DT_FLOAT
    }
  }
  attr {
    key: "_output_shapes"
    value {
      list {
        shape {
          dim {
            size: 4
          }
          dim {
            size: 15
          }
        }
      }
    }
  }
  attr {
    key: "frame_name"
    value {
      s: "global/policy/rnn/while/while_context"
    }
  }
  attr {
    key: "is_constant"
    value {
      b: false
    }
  }
  attr {
    key: "parallel_iterations"
    value {
      i: 32
    }
  }
}
node {
  name: "global/policy/rnn/while/Enter_3"
  op: "Enter"
  input: "global/policy/rnn/rnn_output_0:1"
  device: "/device:CPU:0"
  attr {
    key: "T"
    value {
      type: DT_FLOAT
    }
  }
  attr {
    key: "_output_shapes"
    value {
      list {
        shape {
        }
      }
    }
  }
  attr {
    key: "frame_name"
    value {
      s: "global/policy/rnn/while/while_context"
    }
  }
  attr {
    key: "is_constant"
    value {
      b: false
    }
  }
  attr {
    key: "parallel_iterations"
    value {
      i: 32
    }
  }
}
node {
  name: "global/policy/rnn/while/Enter_4"
  op: "Enter"
  input: "global/policy/rnn/MultiRNNCellZeroState/BasicLSTMCellZeroState/zeros"
  device: "/device:CPU:0"
  attr {
    key: "T"
    value {
      type: DT_FLOAT
    }
  }
  attr {
    key: "_output_shapes"
    value {
      list {
        shape {
          dim {
            size: 4
          }
          dim {
            size: 50
          }
        }
      }
    }
  }
  attr {
    key: "frame_name"
    value {
      s: "global/policy/rnn/while/while_context"
    }
  }
  attr {
    key: "is_constant"
    value {
      b: false
    }
  }
  attr {
    key: "parallel_iterations"
    value {
      i: 32
    }
  }
}
node {
  name: "global/policy/rnn/while/Enter_5"
  op: "Enter"
  input: "global/policy/rnn/MultiRNNCellZeroState/BasicLSTMCellZeroState/zeros_1"
  device: "/device:CPU:0"
  attr {
    key: "T"
    value {
      type: DT_FLOAT
    }
  }
  attr {
    key: "_output_shapes"
    value {
      list {
        shape {
          dim {
            size: 4
          }
          dim {
            size: 50
          }
        }
      }
    }
  }
  attr {
    key: "frame_name"
    value {
      s: "global/policy/rnn/while/while_context"
    }
  }
  attr {
    key: "is_constant"
    value {
      b: false
    }
  }
  attr {
    key: "parallel_iterations"
    value {
      i: 32
    }
  }
}
node {
  name: "global/policy/rnn/while/Enter_6"
  op: "Enter"
  input: "global/policy/rnn/MultiRNNCellZeroState/BasicLSTMCellZeroState_1/zeros"
  device: "/device:CPU:0"
  attr {
    key: "T"
    value {
      type: DT_FLOAT
    }
  }
  attr {
    key: "_output_shapes"
    value {
      list {
        shape {
          dim {
            size: 4
          }
          dim {
            size: 50
          }
        }
      }
    }
  }
  attr {
    key: "frame_name"
    value {
      s: "global/policy/rnn/while/while_context"
    }
  }
  attr {
    key: "is_constant"
    value {
      b: false
    }
  }
  attr {
    key: "parallel_iterations"
    value {
      i: 32
    }
  }
}
node {
  name: "global/policy/rnn/while/Enter_7"
  op: "Enter"
  input: "global/policy/rnn/MultiRNNCellZeroState/BasicLSTMCellZeroState_1/zeros_1"
  device: "/device:CPU:0"
  attr {
    key: "T"
    value {
      type: DT_FLOAT
    }
  }
  attr {
    key: "_output_shapes"
    value {
      list {
        shape {
          dim {
            size: 4
          }
          dim {
            size: 50
          }
        }
      }
    }
  }
  attr {
    key: "frame_name"
    value {
      s: "global/policy/rnn/while/while_context"
    }
  }
  attr {
    key: "is_constant"
    value {
      b: false
    }
  }
  attr {
    key: "parallel_iterations"
    value {
      i: 32
    }
  }
}
node {
  name: "global/policy/rnn/while/Enter_8"
  op: "Enter"
  input: "global/policy/rnn/TensorArray:1"
  device: "/device:CPU:0"
  attr {
    key: "T"
    value {
      type: DT_FLOAT
    }
  }
  attr {
    key: "_output_shapes"
    value {
      list {
        shape {
        }
      }
    }
  }
  attr {
    key: "frame_name"
    value {
      s: "global/policy/rnn/while/while_context"
    }
  }
  attr {
    key: "is_constant"
    value {
      b: false
    }
  }
  attr {
    key: "parallel_iterations"
    value {
      i: 32
    }
  }
}
node {
  name: "global/policy/rnn/while/Enter_9"
  op: "Enter"
  input: "global/policy/rnn/ones"
  device: "/device:CPU:0"
  attr {
    key: "T"
    value {
      type: DT_INT32
    }
  }
  attr {
    key: "_output_shapes"
    value {
      list {
        shape {
          dim {
            size: 4
          }
        }
      }
    }
  }
  attr {
    key: "frame_name"
    value {
      s: "global/policy/rnn/while/while_context"
    }
  }
  attr {
    key: "is_constant"
    value {
      b: false
    }
  }
  attr {
    key: "parallel_iterations"
    value {
      i: 32
    }
  }
}
node {
  name: "global/policy/rnn/while/Enter_10"
  op: "Enter"
  input: "global/policy/rnn/zeros"
  device: "/device:CPU:0"
  attr {
    key: "T"
    value {
      type: DT_BOOL
    }
  }
  attr {
    key: "_output_shapes"
    value {
      list {
        shape {
          dim {
            size: 4
          }
        }
      }
    }
  }
  attr {
    key: "frame_name"
    value {
      s: "global/policy/rnn/while/while_context"
    }
  }
  attr {
    key: "is_constant"
    value {
      b: false
    }
  }
  attr {
    key: "parallel_iterations"
    value {
      i: 32
    }
  }
}
node {
  name: "global/policy/rnn/while/Merge"
  op: "Merge"
  input: "global/policy/rnn/while/Enter"
  input: "global/policy/rnn/while/NextIteration"
  device: "/device:CPU:0"
  attr {
    key: "N"
    value {
      i: 2
    }
  }
  attr {
    key: "T"
    value {
      type: DT_INT32
    }
  }
  attr {
    key: "_output_shapes"
    value {
      list {
        shape {
        }
        shape {
        }
      }
    }
  }
}
node {
  name: "global/policy/rnn/while/Merge_1"
  op: "Merge"
  input: "global/policy/rnn/while/Enter_1"
  input: "global/policy/rnn/while/NextIteration_1"
  device: "/device:CPU:0"
  attr {
    key: "N"
    value {
      i: 2
    }
  }
  attr {
    key: "T"
    value {
      type: DT_BOOL
    }
  }
  attr {
    key: "_output_shapes"
    value {
      list {
        shape {
          dim {
            size: 4
          }
        }
        shape {
        }
      }
    }
  }
}
node {
  name: "global/policy/rnn/while/Merge_2"
  op: "Merge"
  input: "global/policy/rnn/while/Enter_2"
  input: "global/policy/rnn/while/NextIteration_2"
  device: "/device:CPU:0"
  attr {
    key: "N"
    value {
      i: 2
    }
  }
  attr {
    key: "T"
    value {
      type: DT_FLOAT
    }
  }
  attr {
    key: "_output_shapes"
    value {
      list {
        shape {
          dim {
            size: 4
          }
          dim {
            size: 15
          }
        }
        shape {
        }
      }
    }
  }
}
node {
  name: "global/policy/rnn/while/Merge_3"
  op: "Merge"
  input: "global/policy/rnn/while/Enter_3"
  input: "global/policy/rnn/while/NextIteration_3"
  device: "/device:CPU:0"
  attr {
    key: "N"
    value {
      i: 2
    }
  }
  attr {
    key: "T"
    value {
      type: DT_FLOAT
    }
  }
  attr {
    key: "_output_shapes"
    value {
      list {
        shape {
        }
        shape {
        }
      }
    }
  }
}
node {
  name: "global/policy/rnn/while/Merge_4"
  op: "Merge"
  input: "global/policy/rnn/while/Enter_4"
  input: "global/policy/rnn/while/NextIteration_4"
  device: "/device:CPU:0"
  attr {
    key: "N"
    value {
      i: 2
    }
  }
  attr {
    key: "T"
    value {
      type: DT_FLOAT
    }
  }
  attr {
    key: "_output_shapes"
    value {
      list {
        shape {
          dim {
            size: 4
          }
          dim {
            size: 50
          }
        }
        shape {
        }
      }
    }
  }
}
node {
  name: "global/policy/rnn/while/Merge_5"
  op: "Merge"
  input: "global/policy/rnn/while/Enter_5"
  input: "global/policy/rnn/while/NextIteration_5"
  device: "/device:CPU:0"
  attr {
    key: "N"
    value {
      i: 2
    }
  }
  attr {
    key: "T"
    value {
      type: DT_FLOAT
    }
  }
  attr {
    key: "_output_shapes"
    value {
      list {
        shape {
          dim {
            size: 4
          }
          dim {
            size: 50
          }
        }
        shape {
        }
      }
    }
  }
}
node {
  name: "global/policy/rnn/while/Merge_6"
  op: "Merge"
  input: "global/policy/rnn/while/Enter_6"
  input: "global/policy/rnn/while/NextIteration_6"
  device: "/device:CPU:0"
  attr {
    key: "N"
    value {
      i: 2
    }
  }
  attr {
    key: "T"
    value {
      type: DT_FLOAT
    }
  }
  attr {
    key: "_output_shapes"
    value {
      list {
        shape {
          dim {
            size: 4
          }
          dim {
            size: 50
          }
        }
        shape {
        }
      }
    }
  }
}
node {
  name: "global/policy/rnn/while/Merge_7"
  op: "Merge"
  input: "global/policy/rnn/while/Enter_7"
  input: "global/policy/rnn/while/NextIteration_7"
  device: "/device:CPU:0"
  attr {
    key: "N"
    value {
      i: 2
    }
  }
  attr {
    key: "T"
    value {
      type: DT_FLOAT
    }
  }
  attr {
    key: "_output_shapes"
    value {
      list {
        shape {
          dim {
            size: 4
          }
          dim {
            size: 50
          }
        }
        shape {
        }
      }
    }
  }
}
node {
  name: "global/policy/rnn/while/Merge_8"
  op: "Merge"
  input: "global/policy/rnn/while/Enter_8"
  input: "global/policy/rnn/while/NextIteration_8"
  device: "/device:CPU:0"
  attr {
    key: "N"
    value {
      i: 2
    }
  }
  attr {
    key: "T"
    value {
      type: DT_FLOAT
    }
  }
  attr {
    key: "_output_shapes"
    value {
      list {
        shape {
        }
        shape {
        }
      }
    }
  }
}
node {
  name: "global/policy/rnn/while/Merge_9"
  op: "Merge"
  input: "global/policy/rnn/while/Enter_9"
  input: "global/policy/rnn/while/NextIteration_9"
  device: "/device:CPU:0"
  attr {
    key: "N"
    value {
      i: 2
    }
  }
  attr {
    key: "T"
    value {
      type: DT_INT32
    }
  }
  attr {
    key: "_output_shapes"
    value {
      list {
        shape {
          dim {
            size: 4
          }
        }
        shape {
        }
      }
    }
  }
}
node {
  name: "global/policy/rnn/while/Merge_10"
  op: "Merge"
  input: "global/policy/rnn/while/Enter_10"
  input: "global/policy/rnn/while/NextIteration_10"
  device: "/device:CPU:0"
  attr {
    key: "N"
    value {
      i: 2
    }
  }
  attr {
    key: "T"
    value {
      type: DT_BOOL
    }
  }
  attr {
    key: "_output_shapes"
    value {
      list {
        shape {
          dim {
            size: 4
          }
        }
        shape {
        }
      }
    }
  }
}
node {
  name: "global/policy/rnn/while/Const"
  op: "Const"
  input: "^global/policy/rnn/while/Merge"
  device: "/device:CPU:0"
  attr {
    key: "_output_shapes"
    value {
      list {
        shape {
          dim {
            size: 1
          }
        }
      }
    }
  }
  attr {
    key: "dtype"
    value {
      type: DT_INT32
    }
  }
  attr {
    key: "value"
    value {
      tensor {
        dtype: DT_INT32
        tensor_shape {
          dim {
            size: 1
          }
        }
        int_val: 0
      }
    }
  }
}
node {
  name: "global/policy/rnn/while/All"
  op: "All"
  input: "global/policy/rnn/while/Merge_1"
  input: "global/policy/rnn/while/Const"
  device: "/device:CPU:0"
  attr {
    key: "Tidx"
    value {
      type: DT_INT32
    }
  }
  attr {
    key: "_output_shapes"
    value {
      list {
        shape {
        }
      }
    }
  }
  attr {
    key: "keep_dims"
    value {
      b: false
    }
  }
}
node {
  name: "global/policy/rnn/while/LogicalNot"
  op: "LogicalNot"
  input: "global/policy/rnn/while/All"
  device: "/device:CPU:0"
  attr {
    key: "_output_shapes"
    value {
      list {
        shape {
        }
      }
    }
  }
}
node {
  name: "global/policy/rnn/while/LoopCond"
  op: "LoopCond"
  input: "global/policy/rnn/while/LogicalNot"
  device: "/device:CPU:0"
  attr {
    key: "_output_shapes"
    value {
      list {
        shape {
        }
      }
    }
  }
}
node {
  name: "global/policy/rnn/while/Switch"
  op: "Switch"
  input: "global/policy/rnn/while/Merge"
  input: "global/policy/rnn/while/LoopCond"
  device: "/device:CPU:0"
  attr {
    key: "T"
    value {
      type: DT_INT32
    }
  }
  attr {
    key: "_class"
    value {
      list {
        s: "loc:@global/policy/rnn/while/Merge"
      }
    }
  }
  attr {
    key: "_output_shapes"
    value {
      list {
        shape {
        }
        shape {
        }
      }
    }
  }
}
node {
  name: "global/policy/rnn/while/Switch_1"
  op: "Switch"
  input: "global/policy/rnn/while/Merge_1"
  input: "global/policy/rnn/while/LoopCond"
  device: "/device:CPU:0"
  attr {
    key: "T"
    value {
      type: DT_BOOL
    }
  }
  attr {
    key: "_class"
    value {
      list {
        s: "loc:@global/policy/rnn/while/Merge_1"
      }
    }
  }
  attr {
    key: "_output_shapes"
    value {
      list {
        shape {
          dim {
            size: 4
          }
        }
        shape {
          dim {
            size: 4
          }
        }
      }
    }
  }
}
node {
  name: "global/policy/rnn/while/Switch_2"
  op: "Switch"
  input: "global/policy/rnn/while/Merge_2"
  input: "global/policy/rnn/while/LoopCond"
  device: "/device:CPU:0"
  attr {
    key: "T"
    value {
      type: DT_FLOAT
    }
  }
  attr {
    key: "_class"
    value {
      list {
        s: "loc:@global/policy/rnn/while/Merge_2"
      }
    }
  }
  attr {
    key: "_output_shapes"
    value {
      list {
        shape {
          dim {
            size: 4
          }
          dim {
            size: 15
          }
        }
        shape {
          dim {
            size: 4
          }
          dim {
            size: 15
          }
        }
      }
    }
  }
}
node {
  name: "global/policy/rnn/while/Switch_3"
  op: "Switch"
  input: "global/policy/rnn/while/Merge_3"
  input: "global/policy/rnn/while/LoopCond"
  device: "/device:CPU:0"
  attr {
    key: "T"
    value {
      type: DT_FLOAT
    }
  }
  attr {
    key: "_class"
    value {
      list {
        s: "loc:@global/policy/rnn/while/Merge_3"
      }
    }
  }
  attr {
    key: "_output_shapes"
    value {
      list {
        shape {
        }
        shape {
        }
      }
    }
  }
}
node {
  name: "global/policy/rnn/while/Switch_4"
  op: "Switch"
  input: "global/policy/rnn/while/Merge_4"
  input: "global/policy/rnn/while/LoopCond"
  device: "/device:CPU:0"
  attr {
    key: "T"
    value {
      type: DT_FLOAT
    }
  }
  attr {
    key: "_class"
    value {
      list {
        s: "loc:@global/policy/rnn/while/Merge_4"
      }
    }
  }
  attr {
    key: "_output_shapes"
    value {
      list {
        shape {
          dim {
            size: 4
          }
          dim {
            size: 50
          }
        }
        shape {
          dim {
            size: 4
          }
          dim {
            size: 50
          }
        }
      }
    }
  }
}
node {
  name: "global/policy/rnn/while/Switch_5"
  op: "Switch"
  input: "global/policy/rnn/while/Merge_5"
  input: "global/policy/rnn/while/LoopCond"
  device: "/device:CPU:0"
  attr {
    key: "T"
    value {
      type: DT_FLOAT
    }
  }
  attr {
    key: "_class"
    value {
      list {
        s: "loc:@global/policy/rnn/while/Merge_5"
      }
    }
  }
  attr {
    key: "_output_shapes"
    value {
      list {
        shape {
          dim {
            size: 4
          }
          dim {
            size: 50
          }
        }
        shape {
          dim {
            size: 4
          }
          dim {
            size: 50
          }
        }
      }
    }
  }
}
node {
  name: "global/policy/rnn/while/Switch_6"
  op: "Switch"
  input: "global/policy/rnn/while/Merge_6"
  input: "global/policy/rnn/while/LoopCond"
  device: "/device:CPU:0"
  attr {
    key: "T"
    value {
      type: DT_FLOAT
    }
  }
  attr {
    key: "_class"
    value {
      list {
        s: "loc:@global/policy/rnn/while/Merge_6"
      }
    }
  }
  attr {
    key: "_output_shapes"
    value {
      list {
        shape {
          dim {
            size: 4
          }
          dim {
            size: 50
          }
        }
        shape {
          dim {
            size: 4
          }
          dim {
            size: 50
          }
        }
      }
    }
  }
}
node {
  name: "global/policy/rnn/while/Switch_7"
  op: "Switch"
  input: "global/policy/rnn/while/Merge_7"
  input: "global/policy/rnn/while/LoopCond"
  device: "/device:CPU:0"
  attr {
    key: "T"
    value {
      type: DT_FLOAT
    }
  }
  attr {
    key: "_class"
    value {
      list {
        s: "loc:@global/policy/rnn/while/Merge_7"
      }
    }
  }
  attr {
    key: "_output_shapes"
    value {
      list {
        shape {
          dim {
            size: 4
          }
          dim {
            size: 50
          }
        }
        shape {
          dim {
            size: 4
          }
          dim {
            size: 50
          }
        }
      }
    }
  }
}
node {
  name: "global/policy/rnn/while/Switch_8"
  op: "Switch"
  input: "global/policy/rnn/while/Merge_8"
  input: "global/policy/rnn/while/LoopCond"
  device: "/device:CPU:0"
  attr {
    key: "T"
    value {
      type: DT_FLOAT
    }
  }
  attr {
    key: "_class"
    value {
      list {
        s: "loc:@global/policy/rnn/while/Merge_8"
      }
    }
  }
  attr {
    key: "_output_shapes"
    value {
      list {
        shape {
        }
        shape {
        }
      }
    }
  }
}
node {
  name: "global/policy/rnn/while/Switch_9"
  op: "Switch"
  input: "global/policy/rnn/while/Merge_9"
  input: "global/policy/rnn/while/LoopCond"
  device: "/device:CPU:0"
  attr {
    key: "T"
    value {
      type: DT_INT32
    }
  }
  attr {
    key: "_class"
    value {
      list {
        s: "loc:@global/policy/rnn/while/Merge_9"
      }
    }
  }
  attr {
    key: "_output_shapes"
    value {
      list {
        shape {
          dim {
            size: 4
          }
        }
        shape {
          dim {
            size: 4
          }
        }
      }
    }
  }
}
node {
  name: "global/policy/rnn/while/Switch_10"
  op: "Switch"
  input: "global/policy/rnn/while/Merge_10"
  input: "global/policy/rnn/while/LoopCond"
  device: "/device:CPU:0"
  attr {
    key: "T"
    value {
      type: DT_BOOL
    }
  }
  attr {
    key: "_class"
    value {
      list {
        s: "loc:@global/policy/rnn/while/Merge_10"
      }
    }
  }
  attr {
    key: "_output_shapes"
    value {
      list {
        shape {
          dim {
            size: 4
          }
        }
        shape {
          dim {
            size: 4
          }
        }
      }
    }
  }
}
node {
  name: "global/policy/rnn/while/Identity"
  op: "Identity"
  input: "global/policy/rnn/while/Switch:1"
  device: "/device:CPU:0"
  attr {
    key: "T"
    value {
      type: DT_INT32
    }
  }
  attr {
    key: "_output_shapes"
    value {
      list {
        shape {
        }
      }
    }
  }
}
node {
  name: "global/policy/rnn/while/Identity_1"
  op: "Identity"
  input: "global/policy/rnn/while/Switch_1:1"
  device: "/device:CPU:0"
  attr {
    key: "T"
    value {
      type: DT_BOOL
    }
  }
  attr {
    key: "_output_shapes"
    value {
      list {
        shape {
          dim {
            size: 4
          }
        }
      }
    }
  }
}
node {
  name: "global/policy/rnn/while/Identity_2"
  op: "Identity"
  input: "global/policy/rnn/while/Switch_2:1"
  device: "/device:CPU:0"
  attr {
    key: "T"
    value {
      type: DT_FLOAT
    }
  }
  attr {
    key: "_output_shapes"
    value {
      list {
        shape {
          dim {
            size: 4
          }
          dim {
            size: 15
          }
        }
      }
    }
  }
}
node {
  name: "global/policy/rnn/while/Identity_3"
  op: "Identity"
  input: "global/policy/rnn/while/Switch_3:1"
  device: "/device:CPU:0"
  attr {
    key: "T"
    value {
      type: DT_FLOAT
    }
  }
  attr {
    key: "_output_shapes"
    value {
      list {
        shape {
        }
      }
    }
  }
}
node {
  name: "global/policy/rnn/while/Identity_4"
  op: "Identity"
  input: "global/policy/rnn/while/Switch_4:1"
  device: "/device:CPU:0"
  attr {
    key: "T"
    value {
      type: DT_FLOAT
    }
  }
  attr {
    key: "_output_shapes"
    value {
      list {
        shape {
          dim {
            size: 4
          }
          dim {
            size: 50
          }
        }
      }
    }
  }
}
node {
  name: "global/policy/rnn/while/Identity_5"
  op: "Identity"
  input: "global/policy/rnn/while/Switch_5:1"
  device: "/device:CPU:0"
  attr {
    key: "T"
    value {
      type: DT_FLOAT
    }
  }
  attr {
    key: "_output_shapes"
    value {
      list {
        shape {
          dim {
            size: 4
          }
          dim {
            size: 50
          }
        }
      }
    }
  }
}
node {
  name: "global/policy/rnn/while/Identity_6"
  op: "Identity"
  input: "global/policy/rnn/while/Switch_6:1"
  device: "/device:CPU:0"
  attr {
    key: "T"
    value {
      type: DT_FLOAT
    }
  }
  attr {
    key: "_output_shapes"
    value {
      list {
        shape {
          dim {
            size: 4
          }
          dim {
            size: 50
          }
        }
      }
    }
  }
}
node {
  name: "global/policy/rnn/while/Identity_7"
  op: "Identity"
  input: "global/policy/rnn/while/Switch_7:1"
  device: "/device:CPU:0"
  attr {
    key: "T"
    value {
      type: DT_FLOAT
    }
  }
  attr {
    key: "_output_shapes"
    value {
      list {
        shape {
          dim {
            size: 4
          }
          dim {
            size: 50
          }
        }
      }
    }
  }
}
node {
  name: "global/policy/rnn/while/Identity_8"
  op: "Identity"
  input: "global/policy/rnn/while/Switch_8:1"
  device: "/device:CPU:0"
  attr {
    key: "T"
    value {
      type: DT_FLOAT
    }
  }
  attr {
    key: "_output_shapes"
    value {
      list {
        shape {
        }
      }
    }
  }
}
node {
  name: "global/policy/rnn/while/Identity_9"
  op: "Identity"
  input: "global/policy/rnn/while/Switch_9:1"
  device: "/device:CPU:0"
  attr {
    key: "T"
    value {
      type: DT_INT32
    }
  }
  attr {
    key: "_output_shapes"
    value {
      list {
        shape {
          dim {
            size: 4
          }
        }
      }
    }
  }
}
node {
  name: "global/policy/rnn/while/Identity_10"
  op: "Identity"
  input: "global/policy/rnn/while/Switch_10:1"
  device: "/device:CPU:0"
  attr {
    key: "T"
    value {
      type: DT_BOOL
    }
  }
  attr {
    key: "_output_shapes"
    value {
      list {
        shape {
          dim {
            size: 4
          }
        }
      }
    }
  }
}
node {
  name: "global/policy/rnn/LinearWrapper/multi_rnn_cell/cell_0/basic_lstm_cell/kernel/Initializer/random_uniform/shape"
  op: "Const"
  attr {
    key: "_class"
    value {
      list {
        s: "loc:@global/policy/rnn/LinearWrapper/multi_rnn_cell/cell_0/basic_lstm_cell/kernel"
      }
    }
  }
  attr {
    key: "_output_shapes"
    value {
      list {
        shape {
          dim {
            size: 2
          }
        }
      }
    }
  }
  attr {
    key: "dtype"
    value {
      type: DT_INT32
    }
  }
  attr {
    key: "value"
    value {
      tensor {
        dtype: DT_INT32
        tensor_shape {
          dim {
            size: 2
          }
        }
        tensor_content: "A\000\000\000\310\000\000\000"
      }
    }
  }
}
node {
  name: "global/policy/rnn/LinearWrapper/multi_rnn_cell/cell_0/basic_lstm_cell/kernel/Initializer/random_uniform/min"
  op: "Const"
  attr {
    key: "_class"
    value {
      list {
        s: "loc:@global/policy/rnn/LinearWrapper/multi_rnn_cell/cell_0/basic_lstm_cell/kernel"
      }
    }
  }
  attr {
    key: "_output_shapes"
    value {
      list {
        shape {
        }
      }
    }
  }
  attr {
    key: "dtype"
    value {
      type: DT_FLOAT
    }
  }
  attr {
    key: "value"
    value {
      tensor {
        dtype: DT_FLOAT
        tensor_shape {
        }
        float_val: -0.15047095715999603
      }
    }
  }
}
node {
  name: "global/policy/rnn/LinearWrapper/multi_rnn_cell/cell_0/basic_lstm_cell/kernel/Initializer/random_uniform/max"
  op: "Const"
  attr {
    key: "_class"
    value {
      list {
        s: "loc:@global/policy/rnn/LinearWrapper/multi_rnn_cell/cell_0/basic_lstm_cell/kernel"
      }
    }
  }
  attr {
    key: "_output_shapes"
    value {
      list {
        shape {
        }
      }
    }
  }
  attr {
    key: "dtype"
    value {
      type: DT_FLOAT
    }
  }
  attr {
    key: "value"
    value {
      tensor {
        dtype: DT_FLOAT
        tensor_shape {
        }
        float_val: 0.15047095715999603
      }
    }
  }
}
node {
  name: "global/policy/rnn/LinearWrapper/multi_rnn_cell/cell_0/basic_lstm_cell/kernel/Initializer/random_uniform/RandomUniform"
  op: "RandomUniform"
  input: "global/policy/rnn/LinearWrapper/multi_rnn_cell/cell_0/basic_lstm_cell/kernel/Initializer/random_uniform/shape"
  attr {
    key: "T"
    value {
      type: DT_INT32
    }
  }
  attr {
    key: "_class"
    value {
      list {
        s: "loc:@global/policy/rnn/LinearWrapper/multi_rnn_cell/cell_0/basic_lstm_cell/kernel"
      }
    }
  }
  attr {
    key: "_output_shapes"
    value {
      list {
        shape {
          dim {
            size: 65
          }
          dim {
            size: 200
          }
        }
      }
    }
  }
  attr {
    key: "dtype"
    value {
      type: DT_FLOAT
    }
  }
  attr {
    key: "seed"
    value {
      i: 0
    }
  }
  attr {
    key: "seed2"
    value {
      i: 0
    }
  }
}
node {
  name: "global/policy/rnn/LinearWrapper/multi_rnn_cell/cell_0/basic_lstm_cell/kernel/Initializer/random_uniform/sub"
  op: "Sub"
  input: "global/policy/rnn/LinearWrapper/multi_rnn_cell/cell_0/basic_lstm_cell/kernel/Initializer/random_uniform/max"
  input: "global/policy/rnn/LinearWrapper/multi_rnn_cell/cell_0/basic_lstm_cell/kernel/Initializer/random_uniform/min"
  attr {
    key: "T"
    value {
      type: DT_FLOAT
    }
  }
  attr {
    key: "_class"
    value {
      list {
        s: "loc:@global/policy/rnn/LinearWrapper/multi_rnn_cell/cell_0/basic_lstm_cell/kernel"
      }
    }
  }
  attr {
    key: "_output_shapes"
    value {
      list {
        shape {
        }
      }
    }
  }
}
node {
  name: "global/policy/rnn/LinearWrapper/multi_rnn_cell/cell_0/basic_lstm_cell/kernel/Initializer/random_uniform/mul"
  op: "Mul"
  input: "global/policy/rnn/LinearWrapper/multi_rnn_cell/cell_0/basic_lstm_cell/kernel/Initializer/random_uniform/RandomUniform"
  input: "global/policy/rnn/LinearWrapper/multi_rnn_cell/cell_0/basic_lstm_cell/kernel/Initializer/random_uniform/sub"
  attr {
    key: "T"
    value {
      type: DT_FLOAT
    }
  }
  attr {
    key: "_class"
    value {
      list {
        s: "loc:@global/policy/rnn/LinearWrapper/multi_rnn_cell/cell_0/basic_lstm_cell/kernel"
      }
    }
  }
  attr {
    key: "_output_shapes"
    value {
      list {
        shape {
          dim {
            size: 65
          }
          dim {
            size: 200
          }
        }
      }
    }
  }
}
node {
  name: "global/policy/rnn/LinearWrapper/multi_rnn_cell/cell_0/basic_lstm_cell/kernel/Initializer/random_uniform"
  op: "Add"
  input: "global/policy/rnn/LinearWrapper/multi_rnn_cell/cell_0/basic_lstm_cell/kernel/Initializer/random_uniform/mul"
  input: "global/policy/rnn/LinearWrapper/multi_rnn_cell/cell_0/basic_lstm_cell/kernel/Initializer/random_uniform/min"
  attr {
    key: "T"
    value {
      type: DT_FLOAT
    }
  }
  attr {
    key: "_class"
    value {
      list {
        s: "loc:@global/policy/rnn/LinearWrapper/multi_rnn_cell/cell_0/basic_lstm_cell/kernel"
      }
    }
  }
  attr {
    key: "_output_shapes"
    value {
      list {
        shape {
          dim {
            size: 65
          }
          dim {
            size: 200
          }
        }
      }
    }
  }
}
node {
  name: "global/policy/rnn/LinearWrapper/multi_rnn_cell/cell_0/basic_lstm_cell/kernel"
  op: "VarHandleOp"
  device: "/device:CPU:0"
  attr {
    key: "_class"
    value {
      list {
        s: "loc:@global/policy/rnn/LinearWrapper/multi_rnn_cell/cell_0/basic_lstm_cell/kernel"
      }
    }
  }
  attr {
    key: "_output_shapes"
    value {
      list {
        shape {
        }
      }
    }
  }
  attr {
    key: "container"
    value {
      s: ""
    }
  }
  attr {
    key: "dtype"
    value {
      type: DT_FLOAT
    }
  }
  attr {
    key: "shape"
    value {
      shape {
        dim {
          size: 65
        }
        dim {
          size: 200
        }
      }
    }
  }
  attr {
    key: "shared_name"
    value {
      s: "global/policy/rnn/LinearWrapper/multi_rnn_cell/cell_0/basic_lstm_cell/kernel"
    }
  }
}
node {
  name: "global/policy/rnn/LinearWrapper/multi_rnn_cell/cell_0/basic_lstm_cell/kernel/IsInitialized/VarIsInitializedOp"
  op: "VarIsInitializedOp"
  input: "global/policy/rnn/LinearWrapper/multi_rnn_cell/cell_0/basic_lstm_cell/kernel"
  device: "/device:CPU:0"
  attr {
    key: "_output_shapes"
    value {
      list {
        shape {
        }
      }
    }
  }
}
node {
  name: "global/policy/rnn/LinearWrapper/multi_rnn_cell/cell_0/basic_lstm_cell/kernel/Assign"
  op: "AssignVariableOp"
  input: "global/policy/rnn/LinearWrapper/multi_rnn_cell/cell_0/basic_lstm_cell/kernel"
  input: "global/policy/rnn/LinearWrapper/multi_rnn_cell/cell_0/basic_lstm_cell/kernel/Initializer/random_uniform"
  device: "/device:CPU:0"
  attr {
    key: "dtype"
    value {
      type: DT_FLOAT
    }
  }
}
node {
  name: "global/policy/rnn/LinearWrapper/multi_rnn_cell/cell_0/basic_lstm_cell/kernel/Read/ReadVariableOp"
  op: "ReadVariableOp"
  input: "global/policy/rnn/LinearWrapper/multi_rnn_cell/cell_0/basic_lstm_cell/kernel"
  device: "/device:CPU:0"
  attr {
    key: "_output_shapes"
    value {
      list {
        shape {
          dim {
            size: 65
          }
          dim {
            size: 200
          }
        }
      }
    }
  }
  attr {
    key: "dtype"
    value {
      type: DT_FLOAT
    }
  }
}
node {
  name: "global/policy/rnn/LinearWrapper/multi_rnn_cell/cell_0/basic_lstm_cell/kernel/Read/Identity"
  op: "Identity"
  input: "global/policy/rnn/LinearWrapper/multi_rnn_cell/cell_0/basic_lstm_cell/kernel/Read/ReadVariableOp"
  attr {
    key: "T"
    value {
      type: DT_FLOAT
    }
  }
  attr {
    key: "_output_shapes"
    value {
      list {
        shape {
          dim {
            size: 65
          }
          dim {
            size: 200
          }
        }
      }
    }
  }
}
node {
  name: "global/policy/rnn/LinearWrapper/multi_rnn_cell/cell_0/basic_lstm_cell/bias/Initializer/zeros"
  op: "Const"
  attr {
    key: "_class"
    value {
      list {
        s: "loc:@global/policy/rnn/LinearWrapper/multi_rnn_cell/cell_0/basic_lstm_cell/bias"
      }
    }
  }
  attr {
    key: "_output_shapes"
    value {
      list {
        shape {
          dim {
            size: 200
          }
        }
      }
    }
  }
  attr {
    key: "dtype"
    value {
      type: DT_FLOAT
    }
  }
  attr {
    key: "value"
    value {
      tensor {
        dtype: DT_FLOAT
        tensor_shape {
          dim {
            size: 200
          }
        }
        float_val: 0.0
      }
    }
  }
}
node {
  name: "global/policy/rnn/LinearWrapper/multi_rnn_cell/cell_0/basic_lstm_cell/bias"
  op: "VarHandleOp"
  device: "/device:CPU:0"
  attr {
    key: "_class"
    value {
      list {
        s: "loc:@global/policy/rnn/LinearWrapper/multi_rnn_cell/cell_0/basic_lstm_cell/bias"
      }
    }
  }
  attr {
    key: "_output_shapes"
    value {
      list {
        shape {
        }
      }
    }
  }
  attr {
    key: "container"
    value {
      s: ""
    }
  }
  attr {
    key: "dtype"
    value {
      type: DT_FLOAT
    }
  }
  attr {
    key: "shape"
    value {
      shape {
        dim {
          size: 200
        }
      }
    }
  }
  attr {
    key: "shared_name"
    value {
      s: "global/policy/rnn/LinearWrapper/multi_rnn_cell/cell_0/basic_lstm_cell/bias"
    }
  }
}
node {
  name: "global/policy/rnn/LinearWrapper/multi_rnn_cell/cell_0/basic_lstm_cell/bias/IsInitialized/VarIsInitializedOp"
  op: "VarIsInitializedOp"
  input: "global/policy/rnn/LinearWrapper/multi_rnn_cell/cell_0/basic_lstm_cell/bias"
  device: "/device:CPU:0"
  attr {
    key: "_output_shapes"
    value {
      list {
        shape {
        }
      }
    }
  }
}
node {
  name: "global/policy/rnn/LinearWrapper/multi_rnn_cell/cell_0/basic_lstm_cell/bias/Assign"
  op: "AssignVariableOp"
  input: "global/policy/rnn/LinearWrapper/multi_rnn_cell/cell_0/basic_lstm_cell/bias"
  input: "global/policy/rnn/LinearWrapper/multi_rnn_cell/cell_0/basic_lstm_cell/bias/Initializer/zeros"
  device: "/device:CPU:0"
  attr {
    key: "dtype"
    value {
      type: DT_FLOAT
    }
  }
}
node {
  name: "global/policy/rnn/LinearWrapper/multi_rnn_cell/cell_0/basic_lstm_cell/bias/Read/ReadVariableOp"
  op: "ReadVariableOp"
  input: "global/policy/rnn/LinearWrapper/multi_rnn_cell/cell_0/basic_lstm_cell/bias"
  device: "/device:CPU:0"
  attr {
    key: "_output_shapes"
    value {
      list {
        shape {
          dim {
            size: 200
          }
        }
      }
    }
  }
  attr {
    key: "dtype"
    value {
      type: DT_FLOAT
    }
  }
}
node {
  name: "global/policy/rnn/LinearWrapper/multi_rnn_cell/cell_0/basic_lstm_cell/bias/Read/Identity"
  op: "Identity"
  input: "global/policy/rnn/LinearWrapper/multi_rnn_cell/cell_0/basic_lstm_cell/bias/Read/ReadVariableOp"
  attr {
    key: "T"
    value {
      type: DT_FLOAT
    }
  }
  attr {
    key: "_output_shapes"
    value {
      list {
        shape {
          dim {
            size: 200
          }
        }
      }
    }
  }
}
node {
  name: "global/policy/rnn/while/LinearWrapper/LinearWrapper/multi_rnn_cell/cell_0/basic_lstm_cell/Const"
  op: "Const"
  input: "^global/policy/rnn/while/Identity"
  device: "/device:CPU:0"
  attr {
    key: "_output_shapes"
    value {
      list {
        shape {
        }
      }
    }
  }
  attr {
    key: "dtype"
    value {
      type: DT_INT32
    }
  }
  attr {
    key: "value"
    value {
      tensor {
        dtype: DT_INT32
        tensor_shape {
        }
        int_val: 1
      }
    }
  }
}
node {
  name: "global/policy/rnn/while/LinearWrapper/LinearWrapper/multi_rnn_cell/cell_0/basic_lstm_cell/concat/axis"
  op: "Const"
  input: "^global/policy/rnn/while/Identity"
  device: "/device:CPU:0"
  attr {
    key: "_output_shapes"
    value {
      list {
        shape {
        }
      }
    }
  }
  attr {
    key: "dtype"
    value {
      type: DT_INT32
    }
  }
  attr {
    key: "value"
    value {
      tensor {
        dtype: DT_INT32
        tensor_shape {
        }
        int_val: 1
      }
    }
  }
}
node {
  name: "global/policy/rnn/while/LinearWrapper/LinearWrapper/multi_rnn_cell/cell_0/basic_lstm_cell/concat"
  op: "ConcatV2"
  input: "global/policy/rnn/while/Identity_2"
  input: "global/policy/rnn/while/Identity_5"
  input: "global/policy/rnn/while/LinearWrapper/LinearWrapper/multi_rnn_cell/cell_0/basic_lstm_cell/concat/axis"
  device: "/device:CPU:0"
  attr {
    key: "N"
    value {
      i: 2
    }
  }
  attr {
    key: "T"
    value {
      type: DT_FLOAT
    }
  }
  attr {
    key: "Tidx"
    value {
      type: DT_INT32
    }
  }
  attr {
    key: "_output_shapes"
    value {
      list {
        shape {
          dim {
            size: 4
          }
          dim {
            size: 65
          }
        }
      }
    }
  }
}
node {
  name: "global/policy/rnn/while/LinearWrapper/LinearWrapper/multi_rnn_cell/cell_0/basic_lstm_cell/MatMul"
  op: "MatMul"
  input: "global/policy/rnn/while/LinearWrapper/LinearWrapper/multi_rnn_cell/cell_0/basic_lstm_cell/concat"
  input: "global/policy/rnn/while/LinearWrapper/LinearWrapper/multi_rnn_cell/cell_0/basic_lstm_cell/MatMul/Enter"
  device: "/device:CPU:0"
  attr {
    key: "T"
    value {
      type: DT_FLOAT
    }
  }
  attr {
    key: "_output_shapes"
    value {
      list {
        shape {
          dim {
            size: 4
          }
          dim {
            size: 200
          }
        }
      }
    }
  }
  attr {
    key: "transpose_a"
    value {
      b: false
    }
  }
  attr {
    key: "transpose_b"
    value {
      b: false
    }
  }
}
node {
  name: "global/policy/rnn/while/LinearWrapper/LinearWrapper/multi_rnn_cell/cell_0/basic_lstm_cell/MatMul/Enter"
  op: "Enter"
  input: "global/policy/rnn/LinearWrapper/multi_rnn_cell/cell_0/basic_lstm_cell/kernel/Read/Identity"
  device: "/device:CPU:0"
  attr {
    key: "T"
    value {
      type: DT_FLOAT
    }
  }
  attr {
    key: "_output_shapes"
    value {
      list {
        shape {
          dim {
            size: 65
          }
          dim {
            size: 200
          }
        }
      }
    }
  }
  attr {
    key: "frame_name"
    value {
      s: "global/policy/rnn/while/while_context"
    }
  }
  attr {
    key: "is_constant"
    value {
      b: true
    }
  }
  attr {
    key: "parallel_iterations"
    value {
      i: 32
    }
  }
}
node {
  name: "global/policy/rnn/while/LinearWrapper/LinearWrapper/multi_rnn_cell/cell_0/basic_lstm_cell/BiasAdd"
  op: "BiasAdd"
  input: "global/policy/rnn/while/LinearWrapper/LinearWrapper/multi_rnn_cell/cell_0/basic_lstm_cell/MatMul"
  input: "global/policy/rnn/while/LinearWrapper/LinearWrapper/multi_rnn_cell/cell_0/basic_lstm_cell/BiasAdd/Enter"
  device: "/device:CPU:0"
  attr {
    key: "T"
    value {
      type: DT_FLOAT
    }
  }
  attr {
    key: "_output_shapes"
    value {
      list {
        shape {
          dim {
            size: 4
          }
          dim {
            size: 200
          }
        }
      }
    }
  }
  attr {
    key: "data_format"
    value {
      s: "NHWC"
    }
  }
}
node {
  name: "global/policy/rnn/while/LinearWrapper/LinearWrapper/multi_rnn_cell/cell_0/basic_lstm_cell/BiasAdd/Enter"
  op: "Enter"
  input: "global/policy/rnn/LinearWrapper/multi_rnn_cell/cell_0/basic_lstm_cell/bias/Read/Identity"
  device: "/device:CPU:0"
  attr {
    key: "T"
    value {
      type: DT_FLOAT
    }
  }
  attr {
    key: "_output_shapes"
    value {
      list {
        shape {
          dim {
            size: 200
          }
        }
      }
    }
  }
  attr {
    key: "frame_name"
    value {
      s: "global/policy/rnn/while/while_context"
    }
  }
  attr {
    key: "is_constant"
    value {
      b: true
    }
  }
  attr {
    key: "parallel_iterations"
    value {
      i: 32
    }
  }
}
node {
  name: "global/policy/rnn/while/LinearWrapper/LinearWrapper/multi_rnn_cell/cell_0/basic_lstm_cell/Const_1"
  op: "Const"
  input: "^global/policy/rnn/while/Identity"
  device: "/device:CPU:0"
  attr {
    key: "_output_shapes"
    value {
      list {
        shape {
        }
      }
    }
  }
  attr {
    key: "dtype"
    value {
      type: DT_INT32
    }
  }
  attr {
    key: "value"
    value {
      tensor {
        dtype: DT_INT32
        tensor_shape {
        }
        int_val: 4
      }
    }
  }
}
node {
  name: "global/policy/rnn/while/LinearWrapper/LinearWrapper/multi_rnn_cell/cell_0/basic_lstm_cell/split"
  op: "Split"
  input: "global/policy/rnn/while/LinearWrapper/LinearWrapper/multi_rnn_cell/cell_0/basic_lstm_cell/Const"
  input: "global/policy/rnn/while/LinearWrapper/LinearWrapper/multi_rnn_cell/cell_0/basic_lstm_cell/BiasAdd"
  device: "/device:CPU:0"
  attr {
    key: "T"
    value {
      type: DT_FLOAT
    }
  }
  attr {
    key: "_output_shapes"
    value {
      list {
        shape {
          dim {
            size: 4
          }
          dim {
            size: 50
          }
        }
        shape {
          dim {
            size: 4
          }
          dim {
            size: 50
          }
        }
        shape {
          dim {
            size: 4
          }
          dim {
            size: 50
          }
        }
        shape {
          dim {
            size: 4
          }
          dim {
            size: 50
          }
        }
      }
    }
  }
  attr {
    key: "num_split"
    value {
      i: 4
    }
  }
}
node {
  name: "global/policy/rnn/while/LinearWrapper/LinearWrapper/multi_rnn_cell/cell_0/basic_lstm_cell/Const_2"
  op: "Const"
  input: "^global/policy/rnn/while/Identity"
  device: "/device:CPU:0"
  attr {
    key: "_output_shapes"
    value {
      list {
        shape {
        }
      }
    }
  }
  attr {
    key: "dtype"
    value {
      type: DT_FLOAT
    }
  }
  attr {
    key: "value"
    value {
      tensor {
        dtype: DT_FLOAT
        tensor_shape {
        }
        float_val: 1.0
      }
    }
  }
}
node {
  name: "global/policy/rnn/while/LinearWrapper/LinearWrapper/multi_rnn_cell/cell_0/basic_lstm_cell/Add"
  op: "Add"
  input: "global/policy/rnn/while/LinearWrapper/LinearWrapper/multi_rnn_cell/cell_0/basic_lstm_cell/split:2"
  input: "global/policy/rnn/while/LinearWrapper/LinearWrapper/multi_rnn_cell/cell_0/basic_lstm_cell/Const_2"
  device: "/device:CPU:0"
  attr {
    key: "T"
    value {
      type: DT_FLOAT
    }
  }
  attr {
    key: "_output_shapes"
    value {
      list {
        shape {
          dim {
            size: 4
          }
          dim {
            size: 50
          }
        }
      }
    }
  }
}
node {
  name: "global/policy/rnn/while/LinearWrapper/LinearWrapper/multi_rnn_cell/cell_0/basic_lstm_cell/Sigmoid"
  op: "Sigmoid"
  input: "global/policy/rnn/while/LinearWrapper/LinearWrapper/multi_rnn_cell/cell_0/basic_lstm_cell/Add"
  device: "/device:CPU:0"
  attr {
    key: "T"
    value {
      type: DT_FLOAT
    }
  }
  attr {
    key: "_output_shapes"
    value {
      list {
        shape {
          dim {
            size: 4
          }
          dim {
            size: 50
          }
        }
      }
    }
  }
}
node {
  name: "global/policy/rnn/while/LinearWrapper/LinearWrapper/multi_rnn_cell/cell_0/basic_lstm_cell/Mul"
  op: "Mul"
  input: "global/policy/rnn/while/Identity_4"
  input: "global/policy/rnn/while/LinearWrapper/LinearWrapper/multi_rnn_cell/cell_0/basic_lstm_cell/Sigmoid"
  device: "/device:CPU:0"
  attr {
    key: "T"
    value {
      type: DT_FLOAT
    }
  }
  attr {
    key: "_output_shapes"
    value {
      list {
        shape {
          dim {
            size: 4
          }
          dim {
            size: 50
          }
        }
      }
    }
  }
}
node {
  name: "global/policy/rnn/while/LinearWrapper/LinearWrapper/multi_rnn_cell/cell_0/basic_lstm_cell/Sigmoid_1"
  op: "Sigmoid"
  input: "global/policy/rnn/while/LinearWrapper/LinearWrapper/multi_rnn_cell/cell_0/basic_lstm_cell/split"
  device: "/device:CPU:0"
  attr {
    key: "T"
    value {
      type: DT_FLOAT
    }
  }
  attr {
    key: "_output_shapes"
    value {
      list {
        shape {
          dim {
            size: 4
          }
          dim {
            size: 50
          }
        }
      }
    }
  }
}
node {
  name: "global/policy/rnn/while/LinearWrapper/LinearWrapper/multi_rnn_cell/cell_0/basic_lstm_cell/Tanh"
  op: "Tanh"
  input: "global/policy/rnn/while/LinearWrapper/LinearWrapper/multi_rnn_cell/cell_0/basic_lstm_cell/split:1"
  device: "/device:CPU:0"
  attr {
    key: "T"
    value {
      type: DT_FLOAT
    }
  }
  attr {
    key: "_output_shapes"
    value {
      list {
        shape {
          dim {
            size: 4
          }
          dim {
            size: 50
          }
        }
      }
    }
  }
}
node {
  name: "global/policy/rnn/while/LinearWrapper/LinearWrapper/multi_rnn_cell/cell_0/basic_lstm_cell/Mul_1"
  op: "Mul"
  input: "global/policy/rnn/while/LinearWrapper/LinearWrapper/multi_rnn_cell/cell_0/basic_lstm_cell/Sigmoid_1"
  input: "global/policy/rnn/while/LinearWrapper/LinearWrapper/multi_rnn_cell/cell_0/basic_lstm_cell/Tanh"
  device: "/device:CPU:0"
  attr {
    key: "T"
    value {
      type: DT_FLOAT
    }
  }
  attr {
    key: "_output_shapes"
    value {
      list {
        shape {
          dim {
            size: 4
          }
          dim {
            size: 50
          }
        }
      }
    }
  }
}
node {
  name: "global/policy/rnn/while/LinearWrapper/LinearWrapper/multi_rnn_cell/cell_0/basic_lstm_cell/Add_1"
  op: "Add"
  input: "global/policy/rnn/while/LinearWrapper/LinearWrapper/multi_rnn_cell/cell_0/basic_lstm_cell/Mul"
  input: "global/policy/rnn/while/LinearWrapper/LinearWrapper/multi_rnn_cell/cell_0/basic_lstm_cell/Mul_1"
  device: "/device:CPU:0"
  attr {
    key: "T"
    value {
      type: DT_FLOAT
    }
  }
  attr {
    key: "_output_shapes"
    value {
      list {
        shape {
          dim {
            size: 4
          }
          dim {
            size: 50
          }
        }
      }
    }
  }
}
node {
  name: "global/policy/rnn/while/LinearWrapper/LinearWrapper/multi_rnn_cell/cell_0/basic_lstm_cell/Tanh_1"
  op: "Tanh"
  input: "global/policy/rnn/while/LinearWrapper/LinearWrapper/multi_rnn_cell/cell_0/basic_lstm_cell/Add_1"
  device: "/device:CPU:0"
  attr {
    key: "T"
    value {
      type: DT_FLOAT
    }
  }
  attr {
    key: "_output_shapes"
    value {
      list {
        shape {
          dim {
            size: 4
          }
          dim {
            size: 50
          }
        }
      }
    }
  }
}
node {
  name: "global/policy/rnn/while/LinearWrapper/LinearWrapper/multi_rnn_cell/cell_0/basic_lstm_cell/Sigmoid_2"
  op: "Sigmoid"
  input: "global/policy/rnn/while/LinearWrapper/LinearWrapper/multi_rnn_cell/cell_0/basic_lstm_cell/split:3"
  device: "/device:CPU:0"
  attr {
    key: "T"
    value {
      type: DT_FLOAT
    }
  }
  attr {
    key: "_output_shapes"
    value {
      list {
        shape {
          dim {
            size: 4
          }
          dim {
            size: 50
          }
        }
      }
    }
  }
}
node {
  name: "global/policy/rnn/while/LinearWrapper/LinearWrapper/multi_rnn_cell/cell_0/basic_lstm_cell/Mul_2"
  op: "Mul"
  input: "global/policy/rnn/while/LinearWrapper/LinearWrapper/multi_rnn_cell/cell_0/basic_lstm_cell/Tanh_1"
  input: "global/policy/rnn/while/LinearWrapper/LinearWrapper/multi_rnn_cell/cell_0/basic_lstm_cell/Sigmoid_2"
  device: "/device:CPU:0"
  attr {
    key: "T"
    value {
      type: DT_FLOAT
    }
  }
  attr {
    key: "_output_shapes"
    value {
      list {
        shape {
          dim {
            size: 4
          }
          dim {
            size: 50
          }
        }
      }
    }
  }
}
node {
  name: "global/policy/rnn/LinearWrapper/multi_rnn_cell/cell_1/basic_lstm_cell/kernel/Initializer/random_uniform/shape"
  op: "Const"
  attr {
    key: "_class"
    value {
      list {
        s: "loc:@global/policy/rnn/LinearWrapper/multi_rnn_cell/cell_1/basic_lstm_cell/kernel"
      }
    }
  }
  attr {
    key: "_output_shapes"
    value {
      list {
        shape {
          dim {
            size: 2
          }
        }
      }
    }
  }
  attr {
    key: "dtype"
    value {
      type: DT_INT32
    }
  }
  attr {
    key: "value"
    value {
      tensor {
        dtype: DT_INT32
        tensor_shape {
          dim {
            size: 2
          }
        }
        tensor_content: "d\000\000\000\310\000\000\000"
      }
    }
  }
}
node {
  name: "global/policy/rnn/LinearWrapper/multi_rnn_cell/cell_1/basic_lstm_cell/kernel/Initializer/random_uniform/min"
  op: "Const"
  attr {
    key: "_class"
    value {
      list {
        s: "loc:@global/policy/rnn/LinearWrapper/multi_rnn_cell/cell_1/basic_lstm_cell/kernel"
      }
    }
  }
  attr {
    key: "_output_shapes"
    value {
      list {
        shape {
        }
      }
    }
  }
  attr {
    key: "dtype"
    value {
      type: DT_FLOAT
    }
  }
  attr {
    key: "value"
    value {
      tensor {
        dtype: DT_FLOAT
        tensor_shape {
        }
        float_val: -0.1414213627576828
      }
    }
  }
}
node {
  name: "global/policy/rnn/LinearWrapper/multi_rnn_cell/cell_1/basic_lstm_cell/kernel/Initializer/random_uniform/max"
  op: "Const"
  attr {
    key: "_class"
    value {
      list {
        s: "loc:@global/policy/rnn/LinearWrapper/multi_rnn_cell/cell_1/basic_lstm_cell/kernel"
      }
    }
  }
  attr {
    key: "_output_shapes"
    value {
      list {
        shape {
        }
      }
    }
  }
  attr {
    key: "dtype"
    value {
      type: DT_FLOAT
    }
  }
  attr {
    key: "value"
    value {
      tensor {
        dtype: DT_FLOAT
        tensor_shape {
        }
        float_val: 0.1414213627576828
      }
    }
  }
}
node {
  name: "global/policy/rnn/LinearWrapper/multi_rnn_cell/cell_1/basic_lstm_cell/kernel/Initializer/random_uniform/RandomUniform"
  op: "RandomUniform"
  input: "global/policy/rnn/LinearWrapper/multi_rnn_cell/cell_1/basic_lstm_cell/kernel/Initializer/random_uniform/shape"
  attr {
    key: "T"
    value {
      type: DT_INT32
    }
  }
  attr {
    key: "_class"
    value {
      list {
        s: "loc:@global/policy/rnn/LinearWrapper/multi_rnn_cell/cell_1/basic_lstm_cell/kernel"
      }
    }
  }
  attr {
    key: "_output_shapes"
    value {
      list {
        shape {
          dim {
            size: 100
          }
          dim {
            size: 200
          }
        }
      }
    }
  }
  attr {
    key: "dtype"
    value {
      type: DT_FLOAT
    }
  }
  attr {
    key: "seed"
    value {
      i: 0
    }
  }
  attr {
    key: "seed2"
    value {
      i: 0
    }
  }
}
node {
  name: "global/policy/rnn/LinearWrapper/multi_rnn_cell/cell_1/basic_lstm_cell/kernel/Initializer/random_uniform/sub"
  op: "Sub"
  input: "global/policy/rnn/LinearWrapper/multi_rnn_cell/cell_1/basic_lstm_cell/kernel/Initializer/random_uniform/max"
  input: "global/policy/rnn/LinearWrapper/multi_rnn_cell/cell_1/basic_lstm_cell/kernel/Initializer/random_uniform/min"
  attr {
    key: "T"
    value {
      type: DT_FLOAT
    }
  }
  attr {
    key: "_class"
    value {
      list {
        s: "loc:@global/policy/rnn/LinearWrapper/multi_rnn_cell/cell_1/basic_lstm_cell/kernel"
      }
    }
  }
  attr {
    key: "_output_shapes"
    value {
      list {
        shape {
        }
      }
    }
  }
}
node {
  name: "global/policy/rnn/LinearWrapper/multi_rnn_cell/cell_1/basic_lstm_cell/kernel/Initializer/random_uniform/mul"
  op: "Mul"
  input: "global/policy/rnn/LinearWrapper/multi_rnn_cell/cell_1/basic_lstm_cell/kernel/Initializer/random_uniform/RandomUniform"
  input: "global/policy/rnn/LinearWrapper/multi_rnn_cell/cell_1/basic_lstm_cell/kernel/Initializer/random_uniform/sub"
  attr {
    key: "T"
    value {
      type: DT_FLOAT
    }
  }
  attr {
    key: "_class"
    value {
      list {
        s: "loc:@global/policy/rnn/LinearWrapper/multi_rnn_cell/cell_1/basic_lstm_cell/kernel"
      }
    }
  }
  attr {
    key: "_output_shapes"
    value {
      list {
        shape {
          dim {
            size: 100
          }
          dim {
            size: 200
          }
        }
      }
    }
  }
}
node {
  name: "global/policy/rnn/LinearWrapper/multi_rnn_cell/cell_1/basic_lstm_cell/kernel/Initializer/random_uniform"
  op: "Add"
  input: "global/policy/rnn/LinearWrapper/multi_rnn_cell/cell_1/basic_lstm_cell/kernel/Initializer/random_uniform/mul"
  input: "global/policy/rnn/LinearWrapper/multi_rnn_cell/cell_1/basic_lstm_cell/kernel/Initializer/random_uniform/min"
  attr {
    key: "T"
    value {
      type: DT_FLOAT
    }
  }
  attr {
    key: "_class"
    value {
      list {
        s: "loc:@global/policy/rnn/LinearWrapper/multi_rnn_cell/cell_1/basic_lstm_cell/kernel"
      }
    }
  }
  attr {
    key: "_output_shapes"
    value {
      list {
        shape {
          dim {
            size: 100
          }
          dim {
            size: 200
          }
        }
      }
    }
  }
}
node {
  name: "global/policy/rnn/LinearWrapper/multi_rnn_cell/cell_1/basic_lstm_cell/kernel"
  op: "VarHandleOp"
  device: "/device:CPU:0"
  attr {
    key: "_class"
    value {
      list {
        s: "loc:@global/policy/rnn/LinearWrapper/multi_rnn_cell/cell_1/basic_lstm_cell/kernel"
      }
    }
  }
  attr {
    key: "_output_shapes"
    value {
      list {
        shape {
        }
      }
    }
  }
  attr {
    key: "container"
    value {
      s: ""
    }
  }
  attr {
    key: "dtype"
    value {
      type: DT_FLOAT
    }
  }
  attr {
    key: "shape"
    value {
      shape {
        dim {
          size: 100
        }
        dim {
          size: 200
        }
      }
    }
  }
  attr {
    key: "shared_name"
    value {
      s: "global/policy/rnn/LinearWrapper/multi_rnn_cell/cell_1/basic_lstm_cell/kernel"
    }
  }
}
node {
  name: "global/policy/rnn/LinearWrapper/multi_rnn_cell/cell_1/basic_lstm_cell/kernel/IsInitialized/VarIsInitializedOp"
  op: "VarIsInitializedOp"
  input: "global/policy/rnn/LinearWrapper/multi_rnn_cell/cell_1/basic_lstm_cell/kernel"
  device: "/device:CPU:0"
  attr {
    key: "_output_shapes"
    value {
      list {
        shape {
        }
      }
    }
  }
}
node {
  name: "global/policy/rnn/LinearWrapper/multi_rnn_cell/cell_1/basic_lstm_cell/kernel/Assign"
  op: "AssignVariableOp"
  input: "global/policy/rnn/LinearWrapper/multi_rnn_cell/cell_1/basic_lstm_cell/kernel"
  input: "global/policy/rnn/LinearWrapper/multi_rnn_cell/cell_1/basic_lstm_cell/kernel/Initializer/random_uniform"
  device: "/device:CPU:0"
  attr {
    key: "dtype"
    value {
      type: DT_FLOAT
    }
  }
}
node {
  name: "global/policy/rnn/LinearWrapper/multi_rnn_cell/cell_1/basic_lstm_cell/kernel/Read/ReadVariableOp"
  op: "ReadVariableOp"
  input: "global/policy/rnn/LinearWrapper/multi_rnn_cell/cell_1/basic_lstm_cell/kernel"
  device: "/device:CPU:0"
  attr {
    key: "_output_shapes"
    value {
      list {
        shape {
          dim {
            size: 100
          }
          dim {
            size: 200
          }
        }
      }
    }
  }
  attr {
    key: "dtype"
    value {
      type: DT_FLOAT
    }
  }
}
node {
  name: "global/policy/rnn/LinearWrapper/multi_rnn_cell/cell_1/basic_lstm_cell/kernel/Read/Identity"
  op: "Identity"
  input: "global/policy/rnn/LinearWrapper/multi_rnn_cell/cell_1/basic_lstm_cell/kernel/Read/ReadVariableOp"
  attr {
    key: "T"
    value {
      type: DT_FLOAT
    }
  }
  attr {
    key: "_output_shapes"
    value {
      list {
        shape {
          dim {
            size: 100
          }
          dim {
            size: 200
          }
        }
      }
    }
  }
}
node {
  name: "global/policy/rnn/LinearWrapper/multi_rnn_cell/cell_1/basic_lstm_cell/bias/Initializer/zeros"
  op: "Const"
  attr {
    key: "_class"
    value {
      list {
        s: "loc:@global/policy/rnn/LinearWrapper/multi_rnn_cell/cell_1/basic_lstm_cell/bias"
      }
    }
  }
  attr {
    key: "_output_shapes"
    value {
      list {
        shape {
          dim {
            size: 200
          }
        }
      }
    }
  }
  attr {
    key: "dtype"
    value {
      type: DT_FLOAT
    }
  }
  attr {
    key: "value"
    value {
      tensor {
        dtype: DT_FLOAT
        tensor_shape {
          dim {
            size: 200
          }
        }
        float_val: 0.0
      }
    }
  }
}
node {
  name: "global/policy/rnn/LinearWrapper/multi_rnn_cell/cell_1/basic_lstm_cell/bias"
  op: "VarHandleOp"
  device: "/device:CPU:0"
  attr {
    key: "_class"
    value {
      list {
        s: "loc:@global/policy/rnn/LinearWrapper/multi_rnn_cell/cell_1/basic_lstm_cell/bias"
      }
    }
  }
  attr {
    key: "_output_shapes"
    value {
      list {
        shape {
        }
      }
    }
  }
  attr {
    key: "container"
    value {
      s: ""
    }
  }
  attr {
    key: "dtype"
    value {
      type: DT_FLOAT
    }
  }
  attr {
    key: "shape"
    value {
      shape {
        dim {
          size: 200
        }
      }
    }
  }
  attr {
    key: "shared_name"
    value {
      s: "global/policy/rnn/LinearWrapper/multi_rnn_cell/cell_1/basic_lstm_cell/bias"
    }
  }
}
node {
  name: "global/policy/rnn/LinearWrapper/multi_rnn_cell/cell_1/basic_lstm_cell/bias/IsInitialized/VarIsInitializedOp"
  op: "VarIsInitializedOp"
  input: "global/policy/rnn/LinearWrapper/multi_rnn_cell/cell_1/basic_lstm_cell/bias"
  device: "/device:CPU:0"
  attr {
    key: "_output_shapes"
    value {
      list {
        shape {
        }
      }
    }
  }
}
node {
  name: "global/policy/rnn/LinearWrapper/multi_rnn_cell/cell_1/basic_lstm_cell/bias/Assign"
  op: "AssignVariableOp"
  input: "global/policy/rnn/LinearWrapper/multi_rnn_cell/cell_1/basic_lstm_cell/bias"
  input: "global/policy/rnn/LinearWrapper/multi_rnn_cell/cell_1/basic_lstm_cell/bias/Initializer/zeros"
  device: "/device:CPU:0"
  attr {
    key: "dtype"
    value {
      type: DT_FLOAT
    }
  }
}
node {
  name: "global/policy/rnn/LinearWrapper/multi_rnn_cell/cell_1/basic_lstm_cell/bias/Read/ReadVariableOp"
  op: "ReadVariableOp"
  input: "global/policy/rnn/LinearWrapper/multi_rnn_cell/cell_1/basic_lstm_cell/bias"
  device: "/device:CPU:0"
  attr {
    key: "_output_shapes"
    value {
      list {
        shape {
          dim {
            size: 200
          }
        }
      }
    }
  }
  attr {
    key: "dtype"
    value {
      type: DT_FLOAT
    }
  }
}
node {
  name: "global/policy/rnn/LinearWrapper/multi_rnn_cell/cell_1/basic_lstm_cell/bias/Read/Identity"
  op: "Identity"
  input: "global/policy/rnn/LinearWrapper/multi_rnn_cell/cell_1/basic_lstm_cell/bias/Read/ReadVariableOp"
  attr {
    key: "T"
    value {
      type: DT_FLOAT
    }
  }
  attr {
    key: "_output_shapes"
    value {
      list {
        shape {
          dim {
            size: 200
          }
        }
      }
    }
  }
}
node {
  name: "global/policy/rnn/while/LinearWrapper/LinearWrapper/multi_rnn_cell/cell_1/basic_lstm_cell/Const"
  op: "Const"
  input: "^global/policy/rnn/while/Identity"
  device: "/device:CPU:0"
  attr {
    key: "_output_shapes"
    value {
      list {
        shape {
        }
      }
    }
  }
  attr {
    key: "dtype"
    value {
      type: DT_INT32
    }
  }
  attr {
    key: "value"
    value {
      tensor {
        dtype: DT_INT32
        tensor_shape {
        }
        int_val: 1
      }
    }
  }
}
node {
  name: "global/policy/rnn/while/LinearWrapper/LinearWrapper/multi_rnn_cell/cell_1/basic_lstm_cell/concat/axis"
  op: "Const"
  input: "^global/policy/rnn/while/Identity"
  device: "/device:CPU:0"
  attr {
    key: "_output_shapes"
    value {
      list {
        shape {
        }
      }
    }
  }
  attr {
    key: "dtype"
    value {
      type: DT_INT32
    }
  }
  attr {
    key: "value"
    value {
      tensor {
        dtype: DT_INT32
        tensor_shape {
        }
        int_val: 1
      }
    }
  }
}
node {
  name: "global/policy/rnn/while/LinearWrapper/LinearWrapper/multi_rnn_cell/cell_1/basic_lstm_cell/concat"
  op: "ConcatV2"
  input: "global/policy/rnn/while/LinearWrapper/LinearWrapper/multi_rnn_cell/cell_0/basic_lstm_cell/Mul_2"
  input: "global/policy/rnn/while/Identity_7"
  input: "global/policy/rnn/while/LinearWrapper/LinearWrapper/multi_rnn_cell/cell_1/basic_lstm_cell/concat/axis"
  device: "/device:CPU:0"
  attr {
    key: "N"
    value {
      i: 2
    }
  }
  attr {
    key: "T"
    value {
      type: DT_FLOAT
    }
  }
  attr {
    key: "Tidx"
    value {
      type: DT_INT32
    }
  }
  attr {
    key: "_output_shapes"
    value {
      list {
        shape {
          dim {
            size: 4
          }
          dim {
            size: 100
          }
        }
      }
    }
  }
}
node {
  name: "global/policy/rnn/while/LinearWrapper/LinearWrapper/multi_rnn_cell/cell_1/basic_lstm_cell/MatMul"
  op: "MatMul"
  input: "global/policy/rnn/while/LinearWrapper/LinearWrapper/multi_rnn_cell/cell_1/basic_lstm_cell/concat"
  input: "global/policy/rnn/while/LinearWrapper/LinearWrapper/multi_rnn_cell/cell_1/basic_lstm_cell/MatMul/Enter"
  device: "/device:CPU:0"
  attr {
    key: "T"
    value {
      type: DT_FLOAT
    }
  }
  attr {
    key: "_output_shapes"
    value {
      list {
        shape {
          dim {
            size: 4
          }
          dim {
            size: 200
          }
        }
      }
    }
  }
  attr {
    key: "transpose_a"
    value {
      b: false
    }
  }
  attr {
    key: "transpose_b"
    value {
      b: false
    }
  }
}
node {
  name: "global/policy/rnn/while/LinearWrapper/LinearWrapper/multi_rnn_cell/cell_1/basic_lstm_cell/MatMul/Enter"
  op: "Enter"
  input: "global/policy/rnn/LinearWrapper/multi_rnn_cell/cell_1/basic_lstm_cell/kernel/Read/Identity"
  device: "/device:CPU:0"
  attr {
    key: "T"
    value {
      type: DT_FLOAT
    }
  }
  attr {
    key: "_output_shapes"
    value {
      list {
        shape {
          dim {
            size: 100
          }
          dim {
            size: 200
          }
        }
      }
    }
  }
  attr {
    key: "frame_name"
    value {
      s: "global/policy/rnn/while/while_context"
    }
  }
  attr {
    key: "is_constant"
    value {
      b: true
    }
  }
  attr {
    key: "parallel_iterations"
    value {
      i: 32
    }
  }
}
node {
  name: "global/policy/rnn/while/LinearWrapper/LinearWrapper/multi_rnn_cell/cell_1/basic_lstm_cell/BiasAdd"
  op: "BiasAdd"
  input: "global/policy/rnn/while/LinearWrapper/LinearWrapper/multi_rnn_cell/cell_1/basic_lstm_cell/MatMul"
  input: "global/policy/rnn/while/LinearWrapper/LinearWrapper/multi_rnn_cell/cell_1/basic_lstm_cell/BiasAdd/Enter"
  device: "/device:CPU:0"
  attr {
    key: "T"
    value {
      type: DT_FLOAT
    }
  }
  attr {
    key: "_output_shapes"
    value {
      list {
        shape {
          dim {
            size: 4
          }
          dim {
            size: 200
          }
        }
      }
    }
  }
  attr {
    key: "data_format"
    value {
      s: "NHWC"
    }
  }
}
node {
  name: "global/policy/rnn/while/LinearWrapper/LinearWrapper/multi_rnn_cell/cell_1/basic_lstm_cell/BiasAdd/Enter"
  op: "Enter"
  input: "global/policy/rnn/LinearWrapper/multi_rnn_cell/cell_1/basic_lstm_cell/bias/Read/Identity"
  device: "/device:CPU:0"
  attr {
    key: "T"
    value {
      type: DT_FLOAT
    }
  }
  attr {
    key: "_output_shapes"
    value {
      list {
        shape {
          dim {
            size: 200
          }
        }
      }
    }
  }
  attr {
    key: "frame_name"
    value {
      s: "global/policy/rnn/while/while_context"
    }
  }
  attr {
    key: "is_constant"
    value {
      b: true
    }
  }
  attr {
    key: "parallel_iterations"
    value {
      i: 32
    }
  }
}
node {
  name: "global/policy/rnn/while/LinearWrapper/LinearWrapper/multi_rnn_cell/cell_1/basic_lstm_cell/Const_1"
  op: "Const"
  input: "^global/policy/rnn/while/Identity"
  device: "/device:CPU:0"
  attr {
    key: "_output_shapes"
    value {
      list {
        shape {
        }
      }
    }
  }
  attr {
    key: "dtype"
    value {
      type: DT_INT32
    }
  }
  attr {
    key: "value"
    value {
      tensor {
        dtype: DT_INT32
        tensor_shape {
        }
        int_val: 4
      }
    }
  }
}
node {
  name: "global/policy/rnn/while/LinearWrapper/LinearWrapper/multi_rnn_cell/cell_1/basic_lstm_cell/split"
  op: "Split"
  input: "global/policy/rnn/while/LinearWrapper/LinearWrapper/multi_rnn_cell/cell_1/basic_lstm_cell/Const"
  input: "global/policy/rnn/while/LinearWrapper/LinearWrapper/multi_rnn_cell/cell_1/basic_lstm_cell/BiasAdd"
  device: "/device:CPU:0"
  attr {
    key: "T"
    value {
      type: DT_FLOAT
    }
  }
  attr {
    key: "_output_shapes"
    value {
      list {
        shape {
          dim {
            size: 4
          }
          dim {
            size: 50
          }
        }
        shape {
          dim {
            size: 4
          }
          dim {
            size: 50
          }
        }
        shape {
          dim {
            size: 4
          }
          dim {
            size: 50
          }
        }
        shape {
          dim {
            size: 4
          }
          dim {
            size: 50
          }
        }
      }
    }
  }
  attr {
    key: "num_split"
    value {
      i: 4
    }
  }
}
node {
  name: "global/policy/rnn/while/LinearWrapper/LinearWrapper/multi_rnn_cell/cell_1/basic_lstm_cell/Const_2"
  op: "Const"
  input: "^global/policy/rnn/while/Identity"
  device: "/device:CPU:0"
  attr {
    key: "_output_shapes"
    value {
      list {
        shape {
        }
      }
    }
  }
  attr {
    key: "dtype"
    value {
      type: DT_FLOAT
    }
  }
  attr {
    key: "value"
    value {
      tensor {
        dtype: DT_FLOAT
        tensor_shape {
        }
        float_val: 1.0
      }
    }
  }
}
node {
  name: "global/policy/rnn/while/LinearWrapper/LinearWrapper/multi_rnn_cell/cell_1/basic_lstm_cell/Add"
  op: "Add"
  input: "global/policy/rnn/while/LinearWrapper/LinearWrapper/multi_rnn_cell/cell_1/basic_lstm_cell/split:2"
  input: "global/policy/rnn/while/LinearWrapper/LinearWrapper/multi_rnn_cell/cell_1/basic_lstm_cell/Const_2"
  device: "/device:CPU:0"
  attr {
    key: "T"
    value {
      type: DT_FLOAT
    }
  }
  attr {
    key: "_output_shapes"
    value {
      list {
        shape {
          dim {
            size: 4
          }
          dim {
            size: 50
          }
        }
      }
    }
  }
}
node {
  name: "global/policy/rnn/while/LinearWrapper/LinearWrapper/multi_rnn_cell/cell_1/basic_lstm_cell/Sigmoid"
  op: "Sigmoid"
  input: "global/policy/rnn/while/LinearWrapper/LinearWrapper/multi_rnn_cell/cell_1/basic_lstm_cell/Add"
  device: "/device:CPU:0"
  attr {
    key: "T"
    value {
      type: DT_FLOAT
    }
  }
  attr {
    key: "_output_shapes"
    value {
      list {
        shape {
          dim {
            size: 4
          }
          dim {
            size: 50
          }
        }
      }
    }
  }
}
node {
  name: "global/policy/rnn/while/LinearWrapper/LinearWrapper/multi_rnn_cell/cell_1/basic_lstm_cell/Mul"
  op: "Mul"
  input: "global/policy/rnn/while/Identity_6"
  input: "global/policy/rnn/while/LinearWrapper/LinearWrapper/multi_rnn_cell/cell_1/basic_lstm_cell/Sigmoid"
  device: "/device:CPU:0"
  attr {
    key: "T"
    value {
      type: DT_FLOAT
    }
  }
  attr {
    key: "_output_shapes"
    value {
      list {
        shape {
          dim {
            size: 4
          }
          dim {
            size: 50
          }
        }
      }
    }
  }
}
node {
  name: "global/policy/rnn/while/LinearWrapper/LinearWrapper/multi_rnn_cell/cell_1/basic_lstm_cell/Sigmoid_1"
  op: "Sigmoid"
  input: "global/policy/rnn/while/LinearWrapper/LinearWrapper/multi_rnn_cell/cell_1/basic_lstm_cell/split"
  device: "/device:CPU:0"
  attr {
    key: "T"
    value {
      type: DT_FLOAT
    }
  }
  attr {
    key: "_output_shapes"
    value {
      list {
        shape {
          dim {
            size: 4
          }
          dim {
            size: 50
          }
        }
      }
    }
  }
}
node {
  name: "global/policy/rnn/while/LinearWrapper/LinearWrapper/multi_rnn_cell/cell_1/basic_lstm_cell/Tanh"
  op: "Tanh"
  input: "global/policy/rnn/while/LinearWrapper/LinearWrapper/multi_rnn_cell/cell_1/basic_lstm_cell/split:1"
  device: "/device:CPU:0"
  attr {
    key: "T"
    value {
      type: DT_FLOAT
    }
  }
  attr {
    key: "_output_shapes"
    value {
      list {
        shape {
          dim {
            size: 4
          }
          dim {
            size: 50
          }
        }
      }
    }
  }
}
node {
  name: "global/policy/rnn/while/LinearWrapper/LinearWrapper/multi_rnn_cell/cell_1/basic_lstm_cell/Mul_1"
  op: "Mul"
  input: "global/policy/rnn/while/LinearWrapper/LinearWrapper/multi_rnn_cell/cell_1/basic_lstm_cell/Sigmoid_1"
  input: "global/policy/rnn/while/LinearWrapper/LinearWrapper/multi_rnn_cell/cell_1/basic_lstm_cell/Tanh"
  device: "/device:CPU:0"
  attr {
    key: "T"
    value {
      type: DT_FLOAT
    }
  }
  attr {
    key: "_output_shapes"
    value {
      list {
        shape {
          dim {
            size: 4
          }
          dim {
            size: 50
          }
        }
      }
    }
  }
}
node {
  name: "global/policy/rnn/while/LinearWrapper/LinearWrapper/multi_rnn_cell/cell_1/basic_lstm_cell/Add_1"
  op: "Add"
  input: "global/policy/rnn/while/LinearWrapper/LinearWrapper/multi_rnn_cell/cell_1/basic_lstm_cell/Mul"
  input: "global/policy/rnn/while/LinearWrapper/LinearWrapper/multi_rnn_cell/cell_1/basic_lstm_cell/Mul_1"
  device: "/device:CPU:0"
  attr {
    key: "T"
    value {
      type: DT_FLOAT
    }
  }
  attr {
    key: "_output_shapes"
    value {
      list {
        shape {
          dim {
            size: 4
          }
          dim {
            size: 50
          }
        }
      }
    }
  }
}
node {
  name: "global/policy/rnn/while/LinearWrapper/LinearWrapper/multi_rnn_cell/cell_1/basic_lstm_cell/Tanh_1"
  op: "Tanh"
  input: "global/policy/rnn/while/LinearWrapper/LinearWrapper/multi_rnn_cell/cell_1/basic_lstm_cell/Add_1"
  device: "/device:CPU:0"
  attr {
    key: "T"
    value {
      type: DT_FLOAT
    }
  }
  attr {
    key: "_output_shapes"
    value {
      list {
        shape {
          dim {
            size: 4
          }
          dim {
            size: 50
          }
        }
      }
    }
  }
}
node {
  name: "global/policy/rnn/while/LinearWrapper/LinearWrapper/multi_rnn_cell/cell_1/basic_lstm_cell/Sigmoid_2"
  op: "Sigmoid"
  input: "global/policy/rnn/while/LinearWrapper/LinearWrapper/multi_rnn_cell/cell_1/basic_lstm_cell/split:3"
  device: "/device:CPU:0"
  attr {
    key: "T"
    value {
      type: DT_FLOAT
    }
  }
  attr {
    key: "_output_shapes"
    value {
      list {
        shape {
          dim {
            size: 4
          }
          dim {
            size: 50
          }
        }
      }
    }
  }
}
node {
  name: "global/policy/rnn/while/LinearWrapper/LinearWrapper/multi_rnn_cell/cell_1/basic_lstm_cell/Mul_2"
  op: "Mul"
  input: "global/policy/rnn/while/LinearWrapper/LinearWrapper/multi_rnn_cell/cell_1/basic_lstm_cell/Tanh_1"
  input: "global/policy/rnn/while/LinearWrapper/LinearWrapper/multi_rnn_cell/cell_1/basic_lstm_cell/Sigmoid_2"
  device: "/device:CPU:0"
  attr {
    key: "T"
    value {
      type: DT_FLOAT
    }
  }
  attr {
    key: "_output_shapes"
    value {
      list {
        shape {
          dim {
            size: 4
          }
          dim {
            size: 50
          }
        }
      }
    }
  }
}
node {
  name: "global/policy/rnn/LinearWrapper/w_output/Initializer/random_uniform/shape"
  op: "Const"
  attr {
    key: "_class"
    value {
      list {
        s: "loc:@global/policy/rnn/LinearWrapper/w_output"
      }
    }
  }
  attr {
    key: "_output_shapes"
    value {
      list {
        shape {
          dim {
            size: 2
          }
        }
      }
    }
  }
  attr {
    key: "dtype"
    value {
      type: DT_INT32
    }
  }
  attr {
    key: "value"
    value {
      tensor {
        dtype: DT_INT32
        tensor_shape {
          dim {
            size: 2
          }
        }
        tensor_content: "2\000\000\000\024\000\000\000"
      }
    }
  }
}
node {
  name: "global/policy/rnn/LinearWrapper/w_output/Initializer/random_uniform/min"
  op: "Const"
  attr {
    key: "_class"
    value {
      list {
        s: "loc:@global/policy/rnn/LinearWrapper/w_output"
      }
    }
  }
  attr {
    key: "_output_shapes"
    value {
      list {
        shape {
        }
      }
    }
  }
  attr {
    key: "dtype"
    value {
      type: DT_FLOAT
    }
  }
  attr {
    key: "value"
    value {
      tensor {
        dtype: DT_FLOAT
        tensor_shape {
        }
        float_val: -0.29277002811431885
      }
    }
  }
}
node {
  name: "global/policy/rnn/LinearWrapper/w_output/Initializer/random_uniform/max"
  op: "Const"
  attr {
    key: "_class"
    value {
      list {
        s: "loc:@global/policy/rnn/LinearWrapper/w_output"
      }
    }
  }
  attr {
    key: "_output_shapes"
    value {
      list {
        shape {
        }
      }
    }
  }
  attr {
    key: "dtype"
    value {
      type: DT_FLOAT
    }
  }
  attr {
    key: "value"
    value {
      tensor {
        dtype: DT_FLOAT
        tensor_shape {
        }
        float_val: 0.29277002811431885
      }
    }
  }
}
node {
  name: "global/policy/rnn/LinearWrapper/w_output/Initializer/random_uniform/RandomUniform"
  op: "RandomUniform"
  input: "global/policy/rnn/LinearWrapper/w_output/Initializer/random_uniform/shape"
  attr {
    key: "T"
    value {
      type: DT_INT32
    }
  }
  attr {
    key: "_class"
    value {
      list {
        s: "loc:@global/policy/rnn/LinearWrapper/w_output"
      }
    }
  }
  attr {
    key: "_output_shapes"
    value {
      list {
        shape {
          dim {
            size: 50
          }
          dim {
            size: 20
          }
        }
      }
    }
  }
  attr {
    key: "dtype"
    value {
      type: DT_FLOAT
    }
  }
  attr {
    key: "seed"
    value {
      i: 0
    }
  }
  attr {
    key: "seed2"
    value {
      i: 0
    }
  }
}
node {
  name: "global/policy/rnn/LinearWrapper/w_output/Initializer/random_uniform/sub"
  op: "Sub"
  input: "global/policy/rnn/LinearWrapper/w_output/Initializer/random_uniform/max"
  input: "global/policy/rnn/LinearWrapper/w_output/Initializer/random_uniform/min"
  attr {
    key: "T"
    value {
      type: DT_FLOAT
    }
  }
  attr {
    key: "_class"
    value {
      list {
        s: "loc:@global/policy/rnn/LinearWrapper/w_output"
      }
    }
  }
  attr {
    key: "_output_shapes"
    value {
      list {
        shape {
        }
      }
    }
  }
}
node {
  name: "global/policy/rnn/LinearWrapper/w_output/Initializer/random_uniform/mul"
  op: "Mul"
  input: "global/policy/rnn/LinearWrapper/w_output/Initializer/random_uniform/RandomUniform"
  input: "global/policy/rnn/LinearWrapper/w_output/Initializer/random_uniform/sub"
  attr {
    key: "T"
    value {
      type: DT_FLOAT
    }
  }
  attr {
    key: "_class"
    value {
      list {
        s: "loc:@global/policy/rnn/LinearWrapper/w_output"
      }
    }
  }
  attr {
    key: "_output_shapes"
    value {
      list {
        shape {
          dim {
            size: 50
          }
          dim {
            size: 20
          }
        }
      }
    }
  }
}
node {
  name: "global/policy/rnn/LinearWrapper/w_output/Initializer/random_uniform"
  op: "Add"
  input: "global/policy/rnn/LinearWrapper/w_output/Initializer/random_uniform/mul"
  input: "global/policy/rnn/LinearWrapper/w_output/Initializer/random_uniform/min"
  attr {
    key: "T"
    value {
      type: DT_FLOAT
    }
  }
  attr {
    key: "_class"
    value {
      list {
        s: "loc:@global/policy/rnn/LinearWrapper/w_output"
      }
    }
  }
  attr {
    key: "_output_shapes"
    value {
      list {
        shape {
          dim {
            size: 50
          }
          dim {
            size: 20
          }
        }
      }
    }
  }
}
node {
  name: "global/policy/rnn/LinearWrapper/w_output"
  op: "VarHandleOp"
  device: "/device:CPU:0"
  attr {
    key: "_class"
    value {
      list {
        s: "loc:@global/policy/rnn/LinearWrapper/w_output"
      }
    }
  }
  attr {
    key: "_output_shapes"
    value {
      list {
        shape {
        }
      }
    }
  }
  attr {
    key: "container"
    value {
      s: ""
    }
  }
  attr {
    key: "dtype"
    value {
      type: DT_FLOAT
    }
  }
  attr {
    key: "shape"
    value {
      shape {
        dim {
          size: 50
        }
        dim {
          size: 20
        }
      }
    }
  }
  attr {
    key: "shared_name"
    value {
      s: "global/policy/rnn/LinearWrapper/w_output"
    }
  }
}
node {
  name: "global/policy/rnn/LinearWrapper/w_output/IsInitialized/VarIsInitializedOp"
  op: "VarIsInitializedOp"
  input: "global/policy/rnn/LinearWrapper/w_output"
  device: "/device:CPU:0"
  attr {
    key: "_output_shapes"
    value {
      list {
        shape {
        }
      }
    }
  }
}
node {
  name: "global/policy/rnn/LinearWrapper/w_output/Assign"
  op: "AssignVariableOp"
  input: "global/policy/rnn/LinearWrapper/w_output"
  input: "global/policy/rnn/LinearWrapper/w_output/Initializer/random_uniform"
  device: "/device:CPU:0"
  attr {
    key: "dtype"
    value {
      type: DT_FLOAT
    }
  }
}
node {
  name: "global/policy/rnn/LinearWrapper/w_output/Read/ReadVariableOp"
  op: "ReadVariableOp"
  input: "global/policy/rnn/LinearWrapper/w_output"
  device: "/device:CPU:0"
  attr {
    key: "_output_shapes"
    value {
      list {
        shape {
          dim {
            size: 50
          }
          dim {
            size: 20
          }
        }
      }
    }
  }
  attr {
    key: "dtype"
    value {
      type: DT_FLOAT
    }
  }
}
node {
  name: "global/policy/rnn/LinearWrapper/w_output/Read/Identity"
  op: "Identity"
  input: "global/policy/rnn/LinearWrapper/w_output/Read/ReadVariableOp"
  attr {
    key: "T"
    value {
      type: DT_FLOAT
    }
  }
  attr {
    key: "_output_shapes"
    value {
      list {
        shape {
          dim {
            size: 50
          }
          dim {
            size: 20
          }
        }
      }
    }
  }
}
node {
  name: "global/policy/rnn/while/LinearWrapper/MatMul"
  op: "MatMul"
  input: "global/policy/rnn/while/LinearWrapper/LinearWrapper/multi_rnn_cell/cell_1/basic_lstm_cell/Mul_2"
  input: "global/policy/rnn/while/LinearWrapper/MatMul/Enter"
  device: "/device:CPU:0"
  attr {
    key: "T"
    value {
      type: DT_FLOAT
    }
  }
  attr {
    key: "_output_shapes"
    value {
      list {
        shape {
          dim {
            size: 4
          }
          dim {
            size: 20
          }
        }
      }
    }
  }
  attr {
    key: "transpose_a"
    value {
      b: false
    }
  }
  attr {
    key: "transpose_b"
    value {
      b: false
    }
  }
}
node {
  name: "global/policy/rnn/while/LinearWrapper/MatMul/Enter"
  op: "Enter"
  input: "global/policy/rnn/LinearWrapper/w_output/Read/Identity"
  device: "/device:CPU:0"
  attr {
    key: "T"
    value {
      type: DT_FLOAT
    }
  }
  attr {
    key: "_output_shapes"
    value {
      list {
        shape {
          dim {
            size: 50
          }
          dim {
            size: 20
          }
        }
      }
    }
  }
  attr {
    key: "frame_name"
    value {
      s: "global/policy/rnn/while/while_context"
    }
  }
  attr {
    key: "is_constant"
    value {
      b: true
    }
  }
  attr {
    key: "parallel_iterations"
    value {
      i: 32
    }
  }
}
node {
  name: "global/policy/rnn/while/add/y"
  op: "Const"
  input: "^global/policy/rnn/while/Identity"
  device: "/device:CPU:0"
  attr {
    key: "_output_shapes"
    value {
      list {
        shape {
        }
      }
    }
  }
  attr {
    key: "dtype"
    value {
      type: DT_INT32
    }
  }
  attr {
    key: "value"
    value {
      tensor {
        dtype: DT_INT32
        tensor_shape {
        }
        int_val: 1
      }
    }
  }
}
node {
  name: "global/policy/rnn/while/add"
  op: "AddV2"
  input: "global/policy/rnn/while/Identity"
  input: "global/policy/rnn/while/add/y"
  device: "/device:CPU:0"
  attr {
    key: "T"
    value {
      type: DT_INT32
    }
  }
  attr {
    key: "_output_shapes"
    value {
      list {
        shape {
        }
      }
    }
  }
}
node {
  name: "global/policy/rnn/while/mul/y"
  op: "Const"
  input: "^global/policy/rnn/while/Identity"
  device: "/device:CPU:0"
  attr {
    key: "_output_shapes"
    value {
      list {
        shape {
        }
      }
    }
  }
  attr {
    key: "dtype"
    value {
      type: DT_FLOAT
    }
  }
  attr {
    key: "value"
    value {
      tensor {
        dtype: DT_FLOAT
        tensor_shape {
        }
        float_val: 1.0
      }
    }
  }
}
node {
  name: "global/policy/rnn/while/mul"
  op: "Mul"
  input: "global/policy/rnn/while/LinearWrapper/MatMul"
  input: "global/policy/rnn/while/mul/y"
  device: "/device:CPU:0"
  attr {
    key: "T"
    value {
      type: DT_FLOAT
    }
  }
  attr {
    key: "_output_shapes"
    value {
      list {
        shape {
          dim {
            size: 4
          }
          dim {
            size: 20
          }
        }
      }
    }
  }
}
node {
  name: "global/policy/rnn/while/LogicalNot_1"
  op: "LogicalNot"
  input: "global/policy/rnn/while/Identity_10"
  device: "/device:CPU:0"
  attr {
    key: "_output_shapes"
    value {
      list {
        shape {
          dim {
            size: 4
          }
        }
      }
    }
  }
}
node {
  name: "global/policy/rnn/while/multinomial/Multinomial/num_samples"
  op: "Const"
  input: "^global/policy/rnn/while/Identity"
  device: "/device:CPU:0"
  attr {
    key: "_output_shapes"
    value {
      list {
        shape {
        }
      }
    }
  }
  attr {
    key: "dtype"
    value {
      type: DT_INT32
    }
  }
  attr {
    key: "value"
    value {
      tensor {
        dtype: DT_INT32
        tensor_shape {
        }
        int_val: 1
      }
    }
  }
}
node {
  name: "global/policy/rnn/while/multinomial/Multinomial"
  op: "Multinomial"
  input: "global/policy/rnn/while/mul"
  input: "global/policy/rnn/while/multinomial/Multinomial/num_samples"
  device: "/device:CPU:0"
  attr {
    key: "T"
    value {
      type: DT_FLOAT
    }
  }
  attr {
    key: "_output_shapes"
    value {
      list {
        shape {
          dim {
            size: 4
          }
          dim {
            size: 1
          }
        }
      }
    }
  }
  attr {
    key: "output_dtype"
    value {
      type: DT_INT64
    }
  }
  attr {
    key: "seed"
    value {
      i: 0
    }
  }
  attr {
    key: "seed2"
    value {
      i: 0
    }
  }
}
node {
  name: "global/policy/rnn/while/strided_slice/stack"
  op: "Const"
  input: "^global/policy/rnn/while/Identity"
  device: "/device:CPU:0"
  attr {
    key: "_output_shapes"
    value {
      list {
        shape {
          dim {
            size: 2
          }
        }
      }
    }
  }
  attr {
    key: "dtype"
    value {
      type: DT_INT32
    }
  }
  attr {
    key: "value"
    value {
      tensor {
        dtype: DT_INT32
        tensor_shape {
          dim {
            size: 2
          }
        }
        tensor_content: "\000\000\000\000\000\000\000\000"
      }
    }
  }
}
node {
  name: "global/policy/rnn/while/strided_slice/stack_1"
  op: "Const"
  input: "^global/policy/rnn/while/Identity"
  device: "/device:CPU:0"
  attr {
    key: "_output_shapes"
    value {
      list {
        shape {
          dim {
            size: 2
          }
        }
      }
    }
  }
  attr {
    key: "dtype"
    value {
      type: DT_INT32
    }
  }
  attr {
    key: "value"
    value {
      tensor {
        dtype: DT_INT32
        tensor_shape {
          dim {
            size: 2
          }
        }
        tensor_content: "\000\000\000\000\001\000\000\000"
      }
    }
  }
}
node {
  name: "global/policy/rnn/while/strided_slice/stack_2"
  op: "Const"
  input: "^global/policy/rnn/while/Identity"
  device: "/device:CPU:0"
  attr {
    key: "_output_shapes"
    value {
      list {
        shape {
          dim {
            size: 2
          }
        }
      }
    }
  }
  attr {
    key: "dtype"
    value {
      type: DT_INT32
    }
  }
  attr {
    key: "value"
    value {
      tensor {
        dtype: DT_INT32
        tensor_shape {
          dim {
            size: 2
          }
        }
        tensor_content: "\001\000\000\000\001\000\000\000"
      }
    }
  }
}
node {
  name: "global/policy/rnn/while/strided_slice"
  op: "StridedSlice"
  input: "global/policy/rnn/while/multinomial/Multinomial"
  input: "global/policy/rnn/while/strided_slice/stack"
  input: "global/policy/rnn/while/strided_slice/stack_1"
  input: "global/policy/rnn/while/strided_slice/stack_2"
  device: "/device:CPU:0"
  attr {
    key: "Index"
    value {
      type: DT_INT32
    }
  }
  attr {
    key: "T"
    value {
      type: DT_INT64
    }
  }
  attr {
    key: "_output_shapes"
    value {
      list {
        shape {
          dim {
            size: 4
          }
        }
      }
    }
  }
  attr {
    key: "begin_mask"
    value {
      i: 1
    }
  }
  attr {
    key: "ellipsis_mask"
    value {
      i: 0
    }
  }
  attr {
    key: "end_mask"
    value {
      i: 1
    }
  }
  attr {
    key: "new_axis_mask"
    value {
      i: 0
    }
  }
  attr {
    key: "shrink_axis_mask"
    value {
      i: 2
    }
  }
}
node {
  name: "global/policy/rnn/while/zeros"
  op: "Const"
  input: "^global/policy/rnn/while/Identity"
  device: "/device:CPU:0"
  attr {
    key: "_output_shapes"
    value {
      list {
        shape {
          dim {
            size: 4
          }
        }
      }
    }
  }
  attr {
    key: "dtype"
    value {
      type: DT_INT64
    }
  }
  attr {
    key: "value"
    value {
      tensor {
        dtype: DT_INT64
        tensor_shape {
          dim {
            size: 4
          }
        }
        int64_val: 0
      }
    }
  }
}
node {
  name: "global/policy/rnn/while/Select"
  op: "Select"
  input: "global/policy/rnn/while/LogicalNot_1"
  input: "global/policy/rnn/while/strided_slice"
  input: "global/policy/rnn/while/zeros"
  device: "/device:CPU:0"
  attr {
    key: "T"
    value {
      type: DT_INT64
    }
  }
  attr {
    key: "_output_shapes"
    value {
      list {
        shape {
          dim {
            size: 4
          }
        }
      }
    }
  }
}
node {
  name: "global/policy/rnn/while/ToInt32"
  op: "Cast"
  input: "global/policy/rnn/while/Select"
  device: "/device:CPU:0"
  attr {
    key: "DstT"
    value {
      type: DT_INT32
    }
  }
  attr {
    key: "SrcT"
    value {
      type: DT_INT64
    }
  }
  attr {
    key: "Truncate"
    value {
      b: false
    }
  }
  attr {
    key: "_output_shapes"
    value {
      list {
        shape {
          dim {
            size: 4
          }
        }
      }
    }
  }
}
node {
  name: "global/policy/rnn/while/Equal/y"
  op: "Const"
  input: "^global/policy/rnn/while/Identity"
  device: "/device:CPU:0"
  attr {
    key: "_output_shapes"
    value {
      list {
        shape {
        }
      }
    }
  }
  attr {
    key: "dtype"
    value {
      type: DT_INT32
    }
  }
  attr {
    key: "value"
    value {
      tensor {
        dtype: DT_INT32
        tensor_shape {
        }
        int_val: 0
      }
    }
  }
}
node {
  name: "global/policy/rnn/while/Equal"
  op: "Equal"
  input: "global/policy/rnn/while/ToInt32"
  input: "global/policy/rnn/while/Equal/y"
  device: "/device:CPU:0"
  attr {
    key: "T"
    value {
      type: DT_INT32
    }
  }
  attr {
    key: "_output_shapes"
    value {
      list {
        shape {
          dim {
            size: 4
          }
        }
      }
    }
  }
  attr {
    key: "incompatible_shape_error"
    value {
      b: true
    }
  }
}
node {
  name: "global/policy/rnn/while/GreaterEqual/y"
  op: "Const"
  input: "^global/policy/rnn/while/Identity"
  device: "/device:CPU:0"
  attr {
    key: "_output_shapes"
    value {
      list {
        shape {
        }
      }
    }
  }
  attr {
    key: "dtype"
    value {
      type: DT_INT32
    }
  }
  attr {
    key: "value"
    value {
      tensor {
        dtype: DT_INT32
        tensor_shape {
        }
        int_val: 1024
      }
    }
  }
}
node {
  name: "global/policy/rnn/while/GreaterEqual"
  op: "GreaterEqual"
  input: "global/policy/rnn/while/add"
  input: "global/policy/rnn/while/GreaterEqual/y"
  device: "/device:CPU:0"
  attr {
    key: "T"
    value {
      type: DT_INT32
    }
  }
  attr {
    key: "_output_shapes"
    value {
      list {
        shape {
        }
      }
    }
  }
}
node {
  name: "global/policy/rnn/while/LogicalOr"
  op: "LogicalOr"
  input: "global/policy/rnn/while/Equal"
  input: "global/policy/rnn/while/GreaterEqual"
  device: "/device:CPU:0"
  attr {
    key: "_output_shapes"
    value {
      list {
        shape {
          dim {
            size: 4
          }
        }
      }
    }
  }
}
node {
  name: "global/policy/rnn/while/add_1/y"
  op: "Const"
  input: "^global/policy/rnn/while/Identity"
  device: "/device:CPU:0"
  attr {
    key: "_output_shapes"
    value {
      list {
        shape {
        }
      }
    }
  }
  attr {
    key: "dtype"
    value {
      type: DT_INT32
    }
  }
  attr {
    key: "value"
    value {
      tensor {
        dtype: DT_INT32
        tensor_shape {
        }
        int_val: 1
      }
    }
  }
}
node {
  name: "global/policy/rnn/while/add_1"
  op: "AddV2"
  input: "global/policy/rnn/while/add"
  input: "global/policy/rnn/while/add_1/y"
  device: "/device:CPU:0"
  attr {
    key: "T"
    value {
      type: DT_INT32
    }
  }
  attr {
    key: "_output_shapes"
    value {
      list {
        shape {
        }
      }
    }
  }
}
node {
  name: "global/policy/rnn/while/ExpandDims/dim"
  op: "Const"
  input: "^global/policy/rnn/while/Identity"
  device: "/device:CPU:0"
  attr {
    key: "_output_shapes"
    value {
      list {
        shape {
        }
      }
    }
  }
  attr {
    key: "dtype"
    value {
      type: DT_INT32
    }
  }
  attr {
    key: "value"
    value {
      tensor {
        dtype: DT_INT32
        tensor_shape {
        }
        int_val: 0
      }
    }
  }
}
node {
  name: "global/policy/rnn/while/ExpandDims"
  op: "ExpandDims"
  input: "global/policy/rnn/while/add_1"
  input: "global/policy/rnn/while/ExpandDims/dim"
  device: "/device:CPU:0"
  attr {
    key: "T"
    value {
      type: DT_INT32
    }
  }
  attr {
    key: "Tdim"
    value {
      type: DT_INT32
    }
  }
  attr {
    key: "_output_shapes"
    value {
      list {
        shape {
          dim {
            size: 1
          }
        }
      }
    }
  }
}
node {
  name: "global/policy/rnn/while/Tile/multiples"
  op: "Const"
  input: "^global/policy/rnn/while/Identity"
  device: "/device:CPU:0"
  attr {
    key: "_output_shapes"
    value {
      list {
        shape {
          dim {
            size: 1
          }
        }
      }
    }
  }
  attr {
    key: "dtype"
    value {
      type: DT_INT32
    }
  }
  attr {
    key: "value"
    value {
      tensor {
        dtype: DT_INT32
        tensor_shape {
          dim {
            size: 1
          }
        }
        int_val: 4
      }
    }
  }
}
node {
  name: "global/policy/rnn/while/Tile"
  op: "Tile"
  input: "global/policy/rnn/while/ExpandDims"
  input: "global/policy/rnn/while/Tile/multiples"
  device: "/device:CPU:0"
  attr {
    key: "T"
    value {
      type: DT_INT32
    }
  }
  attr {
    key: "Tmultiples"
    value {
      type: DT_INT32
    }
  }
  attr {
    key: "_output_shapes"
    value {
      list {
        shape {
          dim {
            size: 4
          }
        }
      }
    }
  }
}
node {
  name: "global/policy/rnn/while/Select_1"
  op: "Select"
  input: "global/policy/rnn/while/LogicalOr"
  input: "global/policy/rnn/while/Identity_9"
  input: "global/policy/rnn/while/Tile"
  device: "/device:CPU:0"
  attr {
    key: "T"
    value {
      type: DT_INT32
    }
  }
  attr {
    key: "_output_shapes"
    value {
      list {
        shape {
          dim {
            size: 4
          }
        }
      }
    }
  }
}
node {
  name: "global/policy/rnn/while/Gather"
  op: "ResourceGather"
  input: "global/policy/rnn/while/Gather/Enter"
  input: "global/policy/rnn/while/ToInt32"
  device: "/device:CPU:0"
  attr {
    key: "Tindices"
    value {
      type: DT_INT32
    }
  }
  attr {
    key: "_output_shapes"
    value {
      list {
        shape {
          dim {
            size: 4
          }
          dim {
            size: 15
          }
        }
      }
    }
  }
  attr {
    key: "batch_dims"
    value {
      i: 0
    }
  }
  attr {
    key: "dtype"
    value {
      type: DT_FLOAT
    }
  }
  attr {
    key: "validate_indices"
    value {
      b: true
    }
  }
}
node {
  name: "global/policy/rnn/while/Gather/Enter"
  op: "Enter"
  input: "global/obs_embed/embeddings"
  device: "/device:CPU:0"
  attr {
    key: "T"
    value {
      type: DT_RESOURCE
    }
  }
  attr {
    key: "_output_shapes"
    value {
      list {
        shape {
        }
      }
    }
  }
  attr {
    key: "frame_name"
    value {
      s: "global/policy/rnn/while/while_context"
    }
  }
  attr {
    key: "is_constant"
    value {
      b: true
    }
  }
  attr {
    key: "parallel_iterations"
    value {
      i: 32
    }
  }
}
node {
  name: "global/policy/rnn/while/Identity_11"
  op: "Identity"
  input: "global/policy/rnn/while/Gather"
  device: "/device:CPU:0"
  attr {
    key: "T"
    value {
      type: DT_FLOAT
    }
  }
  attr {
    key: "_output_shapes"
    value {
      list {
        shape {
          dim {
            size: 4
          }
          dim {
            size: 15
          }
        }
      }
    }
  }
}
node {
  name: "global/policy/rnn/while/sub/y"
  op: "Const"
  input: "^global/policy/rnn/while/Identity"
  device: "/device:CPU:0"
  attr {
    key: "_output_shapes"
    value {
      list {
        shape {
        }
      }
    }
  }
  attr {
    key: "dtype"
    value {
      type: DT_INT32
    }
  }
  attr {
    key: "value"
    value {
      tensor {
        dtype: DT_INT32
        tensor_shape {
        }
        int_val: 1
      }
    }
  }
}
node {
  name: "global/policy/rnn/while/sub"
  op: "Sub"
  input: "global/policy/rnn/while/add"
  input: "global/policy/rnn/while/sub/y"
  device: "/device:CPU:0"
  attr {
    key: "T"
    value {
      type: DT_INT32
    }
  }
  attr {
    key: "_output_shapes"
    value {
      list {
        shape {
        }
      }
    }
  }
}
node {
  name: "global/policy/rnn/while/TensorArrayWrite/TensorArrayWriteV3"
  op: "TensorArrayWriteV3"
  input: "global/policy/rnn/while/TensorArrayWrite/TensorArrayWriteV3/Enter"
  input: "global/policy/rnn/while/sub"
  input: "global/policy/rnn/while/ToInt32"
  input: "global/policy/rnn/while/Identity_8"
  device: "/device:CPU:0"
  attr {
    key: "T"
    value {
      type: DT_INT32
    }
  }
  attr {
    key: "_class"
    value {
      list {
        s: "loc:@global/policy/rnn/while/ToInt32"
      }
    }
  }
  attr {
    key: "_output_shapes"
    value {
      list {
        shape {
        }
      }
    }
  }
}
node {
  name: "global/policy/rnn/while/TensorArrayWrite/TensorArrayWriteV3/Enter"
  op: "Enter"
  input: "global/policy/rnn/TensorArray"
  device: "/device:CPU:0"
  attr {
    key: "T"
    value {
      type: DT_RESOURCE
    }
  }
  attr {
    key: "_class"
    value {
      list {
        s: "loc:@global/policy/rnn/while/ToInt32"
      }
    }
  }
  attr {
    key: "_output_shapes"
    value {
      list {
        shape {
          dim {
            size: 2
          }
        }
      }
    }
  }
  attr {
    key: "frame_name"
    value {
      s: "global/policy/rnn/while/while_context"
    }
  }
  attr {
    key: "is_constant"
    value {
      b: true
    }
  }
  attr {
    key: "parallel_iterations"
    value {
      i: 32
    }
  }
}
node {
  name: "global/policy/rnn/while/LogicalOr_1"
  op: "LogicalOr"
  input: "global/policy/rnn/while/Identity_10"
  input: "global/policy/rnn/while/LogicalOr"
  device: "/device:CPU:0"
  attr {
    key: "_output_shapes"
    value {
      list {
        shape {
          dim {
            size: 4
          }
        }
      }
    }
  }
}
node {
  name: "global/policy/rnn/while/Select_2"
  op: "Select"
  input: "global/policy/rnn/while/Identity_1"
  input: "global/policy/rnn/while/Select_2/Enter"
  input: "global/policy/rnn/while/mul"
  device: "/device:CPU:0"
  attr {
    key: "T"
    value {
      type: DT_FLOAT
    }
  }
  attr {
    key: "_class"
    value {
      list {
        s: "loc:@global/policy/rnn/while/mul"
      }
    }
  }
  attr {
    key: "_output_shapes"
    value {
      list {
        shape {
          dim {
            size: 4
          }
          dim {
            size: 20
          }
        }
      }
    }
  }
}
node {
  name: "global/policy/rnn/while/Select_2/Enter"
  op: "Enter"
  input: "global/policy/rnn/zeros_1"
  device: "/device:CPU:0"
  attr {
    key: "T"
    value {
      type: DT_FLOAT
    }
  }
  attr {
    key: "_class"
    value {
      list {
        s: "loc:@global/policy/rnn/while/mul"
      }
    }
  }
  attr {
    key: "_output_shapes"
    value {
      list {
        shape {
          dim {
            size: 4
          }
          dim {
            size: 20
          }
        }
      }
    }
  }
  attr {
    key: "frame_name"
    value {
      s: "global/policy/rnn/while/while_context"
    }
  }
  attr {
    key: "is_constant"
    value {
      b: true
    }
  }
  attr {
    key: "parallel_iterations"
    value {
      i: 32
    }
  }
}
node {
  name: "global/policy/rnn/while/Select_3"
  op: "Select"
  input: "global/policy/rnn/while/Identity_1"
  input: "global/policy/rnn/while/Identity_4"
  input: "global/policy/rnn/while/LinearWrapper/LinearWrapper/multi_rnn_cell/cell_0/basic_lstm_cell/Add_1"
  device: "/device:CPU:0"
  attr {
    key: "T"
    value {
      type: DT_FLOAT
    }
  }
  attr {
    key: "_class"
    value {
      list {
        s: "loc:@global/policy/rnn/while/LinearWrapper/LinearWrapper/multi_rnn_cell/cell_0/basic_lstm_cell/Add_1"
      }
    }
  }
  attr {
    key: "_output_shapes"
    value {
      list {
        shape {
          dim {
            size: 4
          }
          dim {
            size: 50
          }
        }
      }
    }
  }
}
node {
  name: "global/policy/rnn/while/Select_4"
  op: "Select"
  input: "global/policy/rnn/while/Identity_1"
  input: "global/policy/rnn/while/Identity_5"
  input: "global/policy/rnn/while/LinearWrapper/LinearWrapper/multi_rnn_cell/cell_0/basic_lstm_cell/Mul_2"
  device: "/device:CPU:0"
  attr {
    key: "T"
    value {
      type: DT_FLOAT
    }
  }
  attr {
    key: "_class"
    value {
      list {
        s: "loc:@global/policy/rnn/while/LinearWrapper/LinearWrapper/multi_rnn_cell/cell_0/basic_lstm_cell/Mul_2"
      }
    }
  }
  attr {
    key: "_output_shapes"
    value {
      list {
        shape {
          dim {
            size: 4
          }
          dim {
            size: 50
          }
        }
      }
    }
  }
}
node {
  name: "global/policy/rnn/while/Select_5"
  op: "Select"
  input: "global/policy/rnn/while/Identity_1"
  input: "global/policy/rnn/while/Identity_6"
  input: "global/policy/rnn/while/LinearWrapper/LinearWrapper/multi_rnn_cell/cell_1/basic_lstm_cell/Add_1"
  device: "/device:CPU:0"
  attr {
    key: "T"
    value {
      type: DT_FLOAT
    }
  }
  attr {
    key: "_class"
    value {
      list {
        s: "loc:@global/policy/rnn/while/LinearWrapper/LinearWrapper/multi_rnn_cell/cell_1/basic_lstm_cell/Add_1"
      }
    }
  }
  attr {
    key: "_output_shapes"
    value {
      list {
        shape {
          dim {
            size: 4
          }
          dim {
            size: 50
          }
        }
      }
    }
  }
}
node {
  name: "global/policy/rnn/while/Select_6"
  op: "Select"
  input: "global/policy/rnn/while/Identity_1"
  input: "global/policy/rnn/while/Identity_7"
  input: "global/policy/rnn/while/LinearWrapper/LinearWrapper/multi_rnn_cell/cell_1/basic_lstm_cell/Mul_2"
  device: "/device:CPU:0"
  attr {
    key: "T"
    value {
      type: DT_FLOAT
    }
  }
  attr {
    key: "_class"
    value {
      list {
        s: "loc:@global/policy/rnn/while/LinearWrapper/LinearWrapper/multi_rnn_cell/cell_1/basic_lstm_cell/Mul_2"
      }
    }
  }
  attr {
    key: "_output_shapes"
    value {
      list {
        shape {
          dim {
            size: 4
          }
          dim {
            size: 50
          }
        }
      }
    }
  }
}
node {
  name: "global/policy/rnn/while/TensorArrayWrite_1/TensorArrayWriteV3"
  op: "TensorArrayWriteV3"
  input: "global/policy/rnn/while/TensorArrayWrite_1/TensorArrayWriteV3/Enter"
  input: "global/policy/rnn/while/Identity"
  input: "global/policy/rnn/while/Select_2"
  input: "global/policy/rnn/while/Identity_3"
  device: "/device:CPU:0"
  attr {
    key: "T"
    value {
      type: DT_FLOAT
    }
  }
  attr {
    key: "_class"
    value {
      list {
        s: "loc:@global/policy/rnn/while/mul"
      }
    }
  }
  attr {
    key: "_output_shapes"
    value {
      list {
        shape {
        }
      }
    }
  }
}
node {
  name: "global/policy/rnn/while/TensorArrayWrite_1/TensorArrayWriteV3/Enter"
  op: "Enter"
  input: "global/policy/rnn/rnn_output_0"
  device: "/device:CPU:0"
  attr {
    key: "T"
    value {
      type: DT_RESOURCE
    }
  }
  attr {
    key: "_class"
    value {
      list {
        s: "loc:@global/policy/rnn/while/mul"
      }
    }
  }
  attr {
    key: "_output_shapes"
    value {
      list {
        shape {
          dim {
            size: 2
          }
        }
      }
    }
  }
  attr {
    key: "frame_name"
    value {
      s: "global/policy/rnn/while/while_context"
    }
  }
  attr {
    key: "is_constant"
    value {
      b: true
    }
  }
  attr {
    key: "parallel_iterations"
    value {
      i: 32
    }
  }
}
node {
  name: "global/policy/rnn/while/LogicalOr_2"
  op: "LogicalOr"
  input: "global/policy/rnn/while/Identity_1"
  input: "global/policy/rnn/while/LogicalOr"
  device: "/device:CPU:0"
  attr {
    key: "_output_shapes"
    value {
      list {
        shape {
          dim {
            size: 4
          }
        }
      }
    }
  }
}
node {
  name: "global/policy/rnn/while/NextIteration"
  op: "NextIteration"
  input: "global/policy/rnn/while/add"
  device: "/device:CPU:0"
  attr {
    key: "T"
    value {
      type: DT_INT32
    }
  }
  attr {
    key: "_output_shapes"
    value {
      list {
        shape {
        }
      }
    }
  }
}
node {
  name: "global/policy/rnn/while/NextIteration_1"
  op: "NextIteration"
  input: "global/policy/rnn/while/LogicalOr_2"
  device: "/device:CPU:0"
  attr {
    key: "T"
    value {
      type: DT_BOOL
    }
  }
  attr {
    key: "_output_shapes"
    value {
      list {
        shape {
          dim {
            size: 4
          }
        }
      }
    }
  }
}
node {
  name: "global/policy/rnn/while/NextIteration_2"
  op: "NextIteration"
  input: "global/policy/rnn/while/Identity_11"
  device: "/device:CPU:0"
  attr {
    key: "T"
    value {
      type: DT_FLOAT
    }
  }
  attr {
    key: "_output_shapes"
    value {
      list {
        shape {
          dim {
            size: 4
          }
          dim {
            size: 15
          }
        }
      }
    }
  }
}
node {
  name: "global/policy/rnn/while/NextIteration_3"
  op: "NextIteration"
  input: "global/policy/rnn/while/TensorArrayWrite_1/TensorArrayWriteV3"
  device: "/device:CPU:0"
  attr {
    key: "T"
    value {
      type: DT_FLOAT
    }
  }
  attr {
    key: "_output_shapes"
    value {
      list {
        shape {
        }
      }
    }
  }
}
node {
  name: "global/policy/rnn/while/NextIteration_4"
  op: "NextIteration"
  input: "global/policy/rnn/while/Select_3"
  device: "/device:CPU:0"
  attr {
    key: "T"
    value {
      type: DT_FLOAT
    }
  }
  attr {
    key: "_output_shapes"
    value {
      list {
        shape {
          dim {
            size: 4
          }
          dim {
            size: 50
          }
        }
      }
    }
  }
}
node {
  name: "global/policy/rnn/while/NextIteration_5"
  op: "NextIteration"
  input: "global/policy/rnn/while/Select_4"
  device: "/device:CPU:0"
  attr {
    key: "T"
    value {
      type: DT_FLOAT
    }
  }
  attr {
    key: "_output_shapes"
    value {
      list {
        shape {
          dim {
            size: 4
          }
          dim {
            size: 50
          }
        }
      }
    }
  }
}
node {
  name: "global/policy/rnn/while/NextIteration_6"
  op: "NextIteration"
  input: "global/policy/rnn/while/Select_5"
  device: "/device:CPU:0"
  attr {
    key: "T"
    value {
      type: DT_FLOAT
    }
  }
  attr {
    key: "_output_shapes"
    value {
      list {
        shape {
          dim {
            size: 4
          }
          dim {
            size: 50
          }
        }
      }
    }
  }
}
node {
  name: "global/policy/rnn/while/NextIteration_7"
  op: "NextIteration"
  input: "global/policy/rnn/while/Select_6"
  device: "/device:CPU:0"
  attr {
    key: "T"
    value {
      type: DT_FLOAT
    }
  }
  attr {
    key: "_output_shapes"
    value {
      list {
        shape {
          dim {
            size: 4
          }
          dim {
            size: 50
          }
        }
      }
    }
  }
}
node {
  name: "global/policy/rnn/while/NextIteration_8"
  op: "NextIteration"
  input: "global/policy/rnn/while/TensorArrayWrite/TensorArrayWriteV3"
  device: "/device:CPU:0"
  attr {
    key: "T"
    value {
      type: DT_FLOAT
    }
  }
  attr {
    key: "_output_shapes"
    value {
      list {
        shape {
        }
      }
    }
  }
}
node {
  name: "global/policy/rnn/while/NextIteration_9"
  op: "NextIteration"
  input: "global/policy/rnn/while/Select_1"
  device: "/device:CPU:0"
  attr {
    key: "T"
    value {
      type: DT_INT32
    }
  }
  attr {
    key: "_output_shapes"
    value {
      list {
        shape {
          dim {
            size: 4
          }
        }
      }
    }
  }
}
node {
  name: "global/policy/rnn/while/NextIteration_10"
  op: "NextIteration"
  input: "global/policy/rnn/while/LogicalOr_1"
  device: "/device:CPU:0"
  attr {
    key: "T"
    value {
      type: DT_BOOL
    }
  }
  attr {
    key: "_output_shapes"
    value {
      list {
        shape {
          dim {
            size: 4
          }
        }
      }
    }
  }
}
node {
  name: "global/policy/rnn/while/Exit"
  op: "Exit"
  input: "global/policy/rnn/while/Switch"
  device: "/device:CPU:0"
  attr {
    key: "T"
    value {
      type: DT_INT32
    }
  }
  attr {
    key: "_output_shapes"
    value {
      list {
        shape {
        }
      }
    }
  }
}
node {
  name: "global/policy/rnn/while/Exit_1"
  op: "Exit"
  input: "global/policy/rnn/while/Switch_1"
  device: "/device:CPU:0"
  attr {
    key: "T"
    value {
      type: DT_BOOL
    }
  }
  attr {
    key: "_output_shapes"
    value {
      list {
        shape {
          dim {
            size: 4
          }
        }
      }
    }
  }
}
node {
  name: "global/policy/rnn/while/Exit_2"
  op: "Exit"
  input: "global/policy/rnn/while/Switch_2"
  device: "/device:CPU:0"
  attr {
    key: "T"
    value {
      type: DT_FLOAT
    }
  }
  attr {
    key: "_output_shapes"
    value {
      list {
        shape {
          dim {
            size: 4
          }
          dim {
            size: 15
          }
        }
      }
    }
  }
}
node {
  name: "global/policy/rnn/while/Exit_3"
  op: "Exit"
  input: "global/policy/rnn/while/Switch_3"
  device: "/device:CPU:0"
  attr {
    key: "T"
    value {
      type: DT_FLOAT
    }
  }
  attr {
    key: "_output_shapes"
    value {
      list {
        shape {
        }
      }
    }
  }
}
node {
  name: "global/policy/rnn/while/Exit_4"
  op: "Exit"
  input: "global/policy/rnn/while/Switch_4"
  device: "/device:CPU:0"
  attr {
    key: "T"
    value {
      type: DT_FLOAT
    }
  }
  attr {
    key: "_output_shapes"
    value {
      list {
        shape {
          dim {
            size: 4
          }
          dim {
            size: 50
          }
        }
      }
    }
  }
}
node {
  name: "global/policy/rnn/while/Exit_5"
  op: "Exit"
  input: "global/policy/rnn/while/Switch_5"
  device: "/device:CPU:0"
  attr {
    key: "T"
    value {
      type: DT_FLOAT
    }
  }
  attr {
    key: "_output_shapes"
    value {
      list {
        shape {
          dim {
            size: 4
          }
          dim {
            size: 50
          }
        }
      }
    }
  }
}
node {
  name: "global/policy/rnn/while/Exit_6"
  op: "Exit"
  input: "global/policy/rnn/while/Switch_6"
  device: "/device:CPU:0"
  attr {
    key: "T"
    value {
      type: DT_FLOAT
    }
  }
  attr {
    key: "_output_shapes"
    value {
      list {
        shape {
          dim {
            size: 4
          }
          dim {
            size: 50
          }
        }
      }
    }
  }
}
node {
  name: "global/policy/rnn/while/Exit_7"
  op: "Exit"
  input: "global/policy/rnn/while/Switch_7"
  device: "/device:CPU:0"
  attr {
    key: "T"
    value {
      type: DT_FLOAT
    }
  }
  attr {
    key: "_output_shapes"
    value {
      list {
        shape {
          dim {
            size: 4
          }
          dim {
            size: 50
          }
        }
      }
    }
  }
}
node {
  name: "global/policy/rnn/while/Exit_8"
  op: "Exit"
  input: "global/policy/rnn/while/Switch_8"
  device: "/device:CPU:0"
  attr {
    key: "T"
    value {
      type: DT_FLOAT
    }
  }
  attr {
    key: "_output_shapes"
    value {
      list {
        shape {
        }
      }
    }
  }
}
node {
  name: "global/policy/rnn/while/Exit_9"
  op: "Exit"
  input: "global/policy/rnn/while/Switch_9"
  device: "/device:CPU:0"
  attr {
    key: "T"
    value {
      type: DT_INT32
    }
  }
  attr {
    key: "_output_shapes"
    value {
      list {
        shape {
          dim {
            size: 4
          }
        }
      }
    }
  }
}
node {
  name: "global/policy/rnn/while/Exit_10"
  op: "Exit"
  input: "global/policy/rnn/while/Switch_10"
  device: "/device:CPU:0"
  attr {
    key: "T"
    value {
      type: DT_BOOL
    }
  }
  attr {
    key: "_output_shapes"
    value {
      list {
        shape {
          dim {
            size: 4
          }
        }
      }
    }
  }
}
node {
  name: "global/TensorArrayStack/TensorArraySizeV3"
  op: "TensorArraySizeV3"
  input: "global/policy/rnn/rnn_output_0"
  input: "global/policy/rnn/while/Exit_3"
  attr {
    key: "_class"
    value {
      list {
        s: "loc:@global/policy/rnn/rnn_output_0"
      }
    }
  }
  attr {
    key: "_output_shapes"
    value {
      list {
        shape {
        }
      }
    }
  }
}
node {
  name: "global/TensorArrayStack/range/start"
  op: "Const"
  attr {
    key: "_class"
    value {
      list {
        s: "loc:@global/policy/rnn/rnn_output_0"
      }
    }
  }
  attr {
    key: "_output_shapes"
    value {
      list {
        shape {
        }
      }
    }
  }
  attr {
    key: "dtype"
    value {
      type: DT_INT32
    }
  }
  attr {
    key: "value"
    value {
      tensor {
        dtype: DT_INT32
        tensor_shape {
        }
        int_val: 0
      }
    }
  }
}
node {
  name: "global/TensorArrayStack/range/delta"
  op: "Const"
  attr {
    key: "_class"
    value {
      list {
        s: "loc:@global/policy/rnn/rnn_output_0"
      }
    }
  }
  attr {
    key: "_output_shapes"
    value {
      list {
        shape {
        }
      }
    }
  }
  attr {
    key: "dtype"
    value {
      type: DT_INT32
    }
  }
  attr {
    key: "value"
    value {
      tensor {
        dtype: DT_INT32
        tensor_shape {
        }
        int_val: 1
      }
    }
  }
}
node {
  name: "global/TensorArrayStack/range"
  op: "Range"
  input: "global/TensorArrayStack/range/start"
  input: "global/TensorArrayStack/TensorArraySizeV3"
  input: "global/TensorArrayStack/range/delta"
  attr {
    key: "Tidx"
    value {
      type: DT_INT32
    }
  }
  attr {
    key: "_class"
    value {
      list {
        s: "loc:@global/policy/rnn/rnn_output_0"
      }
    }
  }
  attr {
    key: "_output_shapes"
    value {
      list {
        shape {
          dim {
            size: -1
          }
        }
      }
    }
  }
}
node {
  name: "global/TensorArrayStack/TensorArrayGatherV3"
  op: "TensorArrayGatherV3"
  input: "global/policy/rnn/rnn_output_0"
  input: "global/TensorArrayStack/range"
  input: "global/policy/rnn/while/Exit_3"
  attr {
    key: "_class"
    value {
      list {
        s: "loc:@global/policy/rnn/rnn_output_0"
      }
    }
  }
  attr {
    key: "_output_shapes"
    value {
      list {
        shape {
          dim {
            size: -1
          }
          dim {
            size: 4
          }
          dim {
            size: 20
          }
        }
      }
    }
  }
  attr {
    key: "dtype"
    value {
      type: DT_FLOAT
    }
  }
  attr {
    key: "element_shape"
    value {
      shape {
        dim {
          size: 4
        }
        dim {
          size: 20
        }
      }
    }
  }
}
node {
  name: "global/policy_logits/perm"
  op: "Const"
  device: "/device:CPU:0"
  attr {
    key: "_output_shapes"
    value {
      list {
        shape {
          dim {
            size: 3
          }
        }
      }
    }
  }
  attr {
    key: "dtype"
    value {
      type: DT_INT32
    }
  }
  attr {
    key: "value"
    value {
      tensor {
        dtype: DT_INT32
        tensor_shape {
          dim {
            size: 3
          }
        }
        tensor_content: "\001\000\000\000\000\000\000\000\002\000\000\000"
      }
    }
  }
}
node {
  name: "global/policy_logits"
  op: "Transpose"
  input: "global/TensorArrayStack/TensorArrayGatherV3"
  input: "global/policy_logits/perm"
  device: "/device:CPU:0"
  attr {
    key: "T"
    value {
      type: DT_FLOAT
    }
  }
  attr {
    key: "Tperm"
    value {
      type: DT_INT32
    }
  }
  attr {
    key: "_output_shapes"
    value {
      list {
        shape {
          dim {
            size: 4
          }
          dim {
            size: -1
          }
          dim {
            size: 20
          }
        }
      }
    }
  }
}
node {
  name: "global/TensorArrayStack_1/TensorArraySizeV3"
  op: "TensorArraySizeV3"
  input: "global/policy/rnn/TensorArray"
  input: "global/policy/rnn/while/Exit_8"
  attr {
    key: "_class"
    value {
      list {
        s: "loc:@global/policy/rnn/TensorArray"
      }
    }
  }
  attr {
    key: "_output_shapes"
    value {
      list {
        shape {
        }
      }
    }
  }
}
node {
  name: "global/TensorArrayStack_1/range/start"
  op: "Const"
  attr {
    key: "_class"
    value {
      list {
        s: "loc:@global/policy/rnn/TensorArray"
      }
    }
  }
  attr {
    key: "_output_shapes"
    value {
      list {
        shape {
        }
      }
    }
  }
  attr {
    key: "dtype"
    value {
      type: DT_INT32
    }
  }
  attr {
    key: "value"
    value {
      tensor {
        dtype: DT_INT32
        tensor_shape {
        }
        int_val: 0
      }
    }
  }
}
node {
  name: "global/TensorArrayStack_1/range/delta"
  op: "Const"
  attr {
    key: "_class"
    value {
      list {
        s: "loc:@global/policy/rnn/TensorArray"
      }
    }
  }
  attr {
    key: "_output_shapes"
    value {
      list {
        shape {
        }
      }
    }
  }
  attr {
    key: "dtype"
    value {
      type: DT_INT32
    }
  }
  attr {
    key: "value"
    value {
      tensor {
        dtype: DT_INT32
        tensor_shape {
        }
        int_val: 1
      }
    }
  }
}
node {
  name: "global/TensorArrayStack_1/range"
  op: "Range"
…
    key: "_class"
    value {
      list {
        s: "loc:@global/obs_embed/embeddings"
      }
    }
  }
  attr {
    key: "_output_shapes"
    value {
      list {
        shape {
          dim {
            size: 1
          }
        }
      }
    }
  }
  attr {
    key: "out_type"
    value {
      type: DT_INT32
    }
  }
}
node {
  name: "local_1/RMSProp/update_global/obs_embed/embeddings/strided_slice/stack"
  op: "Const"
  device: "/device:CPU:0"
  attr {
    key: "_class"
    value {
      list {
        s: "loc:@global/obs_embed/embeddings"
      }
    }
  }
  attr {
    key: "_output_shapes"
    value {
      list {
        shape {
          dim {
            size: 1
          }
        }
      }
    }
  }
  attr {
    key: "dtype"
    value {
      type: DT_INT32
    }
  }
  attr {
    key: "value"
    value {
      tensor {
        dtype: DT_INT32
        tensor_shape {
          dim {
            size: 1
          }
        }
        int_val: 0
      }
    }
  }
}
node {
  name: "local_1/RMSProp/update_global/obs_embed/embeddings/strided_slice/stack_1"
  op: "Const"
  device: "/device:CPU:0"
  attr {
    key: "_class"
    value {
      list {
        s: "loc:@global/obs_embed/embeddings"
      }
    }
  }
  attr {
    key: "_output_shapes"
    value {
      list {
        shape {
          dim {
            size: 1
          }
        }
      }
    }
  }
  attr {
    key: "dtype"
    value {
      type: DT_INT32
    }
  }
  attr {
    key: "value"
    value {
      tensor {
        dtype: DT_INT32
        tensor_shape {
          dim {
            size: 1
          }
        }
        int_val: 1
      }
    }
  }
}
node {
  name: "local_1/RMSProp/update_global/obs_embed/embeddings/strided_slice/stack_2"
  op: "Const"
  device: "/device:CPU:0"
  attr {
    key: "_class"
    value {
      list {
        s: "loc:@global/obs_embed/embeddings"
      }
    }
  }
  attr {
    key: "_output_shapes"
    value {
      list {
        shape {
          dim {
            size: 1
          }
        }
      }
    }
  }
  attr {
    key: "dtype"
    value {
      type: DT_INT32
    }
  }
  attr {
    key: "value"
    value {
      tensor {
        dtype: DT_INT32
        tensor_shape {
          dim {
            size: 1
          }
        }
        int_val: 1
      }
    }
  }
}
node {
  name: "local_1/RMSProp/update_global/obs_embed/embeddings/strided_slice"
  op: "StridedSlice"
  input: "local_1/RMSProp/update_global/obs_embed/embeddings/Shape"
  input: "local_1/RMSProp/update_global/obs_embed/embeddings/strided_slice/stack"
  input: "local_1/RMSProp/update_global/obs_embed/embeddings/strided_slice/stack_1"
  input: "local_1/RMSProp/update_global/obs_embed/embeddings/strided_slice/stack_2"
  device: "/device:CPU:0"
  attr {
    key: "Index"
    value {
      type: DT_INT32
    }
  }
  attr {
    key: "T"
    value {
      type: DT_INT32
    }
  }
  attr {
    key: "_class"
    value {
      list {
        s: "loc:@global/obs_embed/embeddings"
      }
    }
  }
  attr {
    key: "_output_shapes"
    value {
      list {
        shape {
        }
      }
    }
  }
  attr {
    key: "begin_mask"
    value {
      i: 0
    }
  }
  attr {
    key: "ellipsis_mask"
    value {
      i: 0
    }
  }
  attr {
    key: "end_mask"
    value {
      i: 0
    }
  }
  attr {
    key: "new_axis_mask"
    value {
      i: 0
    }
  }
  attr {
    key: "shrink_axis_mask"
    value {
      i: 1
    }
  }
}
node {
  name: "local_1/RMSProp/update_global/obs_embed/embeddings/UnsortedSegmentSum"
  op: "UnsortedSegmentSum"
  input: "local/clip_by_global_norm/local/clip_by_global_norm/_0"
  input: "local_1/RMSProp/update_global/obs_embed/embeddings/Unique:1"
  input: "local_1/RMSProp/update_global/obs_embed/embeddings/strided_slice"
  device: "/device:CPU:0"
  attr {
    key: "T"
    value {
      type: DT_FLOAT
    }
  }
  attr {
    key: "Tindices"
    value {
      type: DT_INT32
    }
  }
  attr {
    key: "Tnumsegments"
    value {
      type: DT_INT32
    }
  }
  attr {
    key: "_class"
    value {
      list {
        s: "loc:@global/obs_embed/embeddings"
      }
    }
  }
  attr {
    key: "_output_shapes"
    value {
      list {
        shape {
          dim {
            size: -1
          }
          dim {
            size: 15
          }
        }
      }
    }
  }
}
node {
  name: "local_1/RMSProp/update_global/obs_embed/embeddings/ResourceSparseApplyRMSProp"
  op: "ResourceSparseApplyRMSProp"
  input: "global/obs_embed/embeddings"
  input: "local/global/obs_embed/embeddings/RMSProp"
  input: "local/global/obs_embed/embeddings/RMSProp_1"
  input: "local/learning_rate"
  input: "local_1/RMSProp/decay"
  input: "local_1/RMSProp/momentum"
  input: "local_1/RMSProp/epsilon"
  input: "local_1/RMSProp/update_global/obs_embed/embeddings/UnsortedSegmentSum"
  input: "local_1/RMSProp/update_global/obs_embed/embeddings/Unique"
  device: "/device:CPU:0"
  attr {
    key: "T"
    value {
      type: DT_FLOAT
    }
  }
  attr {
    key: "Tindices"
    value {
      type: DT_INT32
    }
  }
  attr {
    key: "_class"
    value {
      list {
        s: "loc:@global/obs_embed/embeddings"
      }
    }
  }
  attr {
    key: "use_locking"
    value {
      b: false
    }
  }
}
node {
  name: "local_1/RMSProp/update_global/policy/rnn/LinearWrapper/multi_rnn_cell/cell_0/basic_lstm_cell/kernel/ResourceApplyRMSProp"
  op: "ResourceApplyRMSProp"
  input: "global/policy/rnn/LinearWrapper/multi_rnn_cell/cell_0/basic_lstm_cell/kernel"
  input: "local/global/policy/rnn/LinearWrapper/multi_rnn_cell/cell_0/basic_lstm_cell/kernel/RMSProp"
  input: "local/global/policy/rnn/LinearWrapper/multi_rnn_cell/cell_0/basic_lstm_cell/kernel/RMSProp_1"
  input: "local/learning_rate"
  input: "local_1/RMSProp/decay"
  input: "local_1/RMSProp/momentum"
  input: "local_1/RMSProp/epsilon"
  input: "local/clip_by_global_norm/local/clip_by_global_norm/_1"
  device: "/device:CPU:0"
  attr {
    key: "T"
    value {
      type: DT_FLOAT
    }
  }
  attr {
    key: "_class"
    value {
      list {
        s: "loc:@global/policy/rnn/LinearWrapper/multi_rnn_cell/cell_0/basic_lstm_cell/kernel"
      }
    }
  }
  attr {
    key: "use_locking"
    value {
      b: false
    }
  }
}
node {
  name: "local_1/RMSProp/update_global/policy/rnn/LinearWrapper/multi_rnn_cell/cell_0/basic_lstm_cell/bias/ResourceApplyRMSProp"
  op: "ResourceApplyRMSProp"
  input: "global/policy/rnn/LinearWrapper/multi_rnn_cell/cell_0/basic_lstm_cell/bias"
  input: "local/global/policy/rnn/LinearWrapper/multi_rnn_cell/cell_0/basic_lstm_cell/bias/RMSProp"
  input: "local/global/policy/rnn/LinearWrapper/multi_rnn_cell/cell_0/basic_lstm_cell/bias/RMSProp_1"
  input: "local/learning_rate"
  input: "local_1/RMSProp/decay"
  input: "local_1/RMSProp/momentum"
  input: "local_1/RMSProp/epsilon"
  input: "local/clip_by_global_norm/local/clip_by_global_norm/_2"
  device: "/device:CPU:0"
  attr {
    key: "T"
    value {
      type: DT_FLOAT
    }
  }
  attr {
    key: "_class"
    value {
      list {
        s: "loc:@global/policy/rnn/LinearWrapper/multi_rnn_cell/cell_0/basic_lstm_cell/bias"
      }
    }
  }
  attr {
    key: "use_locking"
    value {
      b: false
    }
  }
}
node {
  name: "local_1/RMSProp/update_global/policy/rnn/LinearWrapper/multi_rnn_cell/cell_1/basic_lstm_cell/kernel/ResourceApplyRMSProp"
  op: "ResourceApplyRMSProp"
  input: "global/policy/rnn/LinearWrapper/multi_rnn_cell/cell_1/basic_lstm_cell/kernel"
  input: "local/global/policy/rnn/LinearWrapper/multi_rnn_cell/cell_1/basic_lstm_cell/kernel/RMSProp"
  input: "local/global/policy/rnn/LinearWrapper/multi_rnn_cell/cell_1/basic_lstm_cell/kernel/RMSProp_1"
  input: "local/learning_rate"
  input: "local_1/RMSProp/decay"
  input: "local_1/RMSProp/momentum"
  input: "local_1/RMSProp/epsilon"
  input: "local/clip_by_global_norm/local/clip_by_global_norm/_3"
  device: "/device:CPU:0"
  attr {
    key: "T"
    value {
      type: DT_FLOAT
    }
  }
  attr {
    key: "_class"
    value {
      list {
        s: "loc:@global/policy/rnn/LinearWrapper/multi_rnn_cell/cell_1/basic_lstm_cell/kernel"
      }
    }
  }
  attr {
    key: "use_locking"
    value {
      b: false
    }
  }
}
node {
  name: "local_1/RMSProp/update_global/policy/rnn/LinearWrapper/multi_rnn_cell/cell_1/basic_lstm_cell/bias/ResourceApplyRMSProp"
  op: "ResourceApplyRMSProp"
  input: "global/policy/rnn/LinearWrapper/multi_rnn_cell/cell_1/basic_lstm_cell/bias"
  input: "local/global/policy/rnn/LinearWrapper/multi_rnn_cell/cell_1/basic_lstm_cell/bias/RMSProp"
  input: "local/global/policy/rnn/LinearWrapper/multi_rnn_cell/cell_1/basic_lstm_cell/bias/RMSProp_1"
  input: "local/learning_rate"
  input: "local_1/RMSProp/decay"
  input: "local_1/RMSProp/momentum"
  input: "local_1/RMSProp/epsilon"
  input: "local/clip_by_global_norm/local/clip_by_global_norm/_4"
  device: "/device:CPU:0"
  attr {
    key: "T"
    value {
      type: DT_FLOAT
    }
  }
  attr {
    key: "_class"
    value {
      list {
        s: "loc:@global/policy/rnn/LinearWrapper/multi_rnn_cell/cell_1/basic_lstm_cell/bias"
      }
    }
  }
  attr {
    key: "use_locking"
    value {
      b: false
    }
  }
}
node {
  name: "local_1/RMSProp/update_global/policy/rnn/LinearWrapper/w_output/ResourceApplyRMSProp"
  op: "ResourceApplyRMSProp"
  input: "global/policy/rnn/LinearWrapper/w_output"
  input: "local/global/policy/rnn/LinearWrapper/w_output/RMSProp"
  input: "local/global/policy/rnn/LinearWrapper/w_output/RMSProp_1"
  input: "local/learning_rate"
  input: "local_1/RMSProp/decay"
  input: "local_1/RMSProp/momentum"
  input: "local_1/RMSProp/epsilon"
  input: "local/clip_by_global_norm/local/clip_by_global_norm/_5"
  device: "/device:CPU:0"
  attr {
    key: "T"
    value {
      type: DT_FLOAT
    }
  }
  attr {
    key: "_class"
    value {
      list {
        s: "loc:@global/policy/rnn/LinearWrapper/w_output"
      }
    }
  }
  attr {
    key: "use_locking"
    value {
      b: false
    }
  }
}
node {
  name: "local_1/RMSProp/update"
  op: "NoOp"
  input: "^local_1/RMSProp/update_global/obs_embed/embeddings/ResourceSparseApplyRMSProp"
  input: "^local_1/RMSProp/update_global/policy/rnn/LinearWrapper/multi_rnn_cell/cell_0/basic_lstm_cell/bias/ResourceApplyRMSProp"
  input: "^local_1/RMSProp/update_global/policy/rnn/LinearWrapper/multi_rnn_cell/cell_0/basic_lstm_cell/kernel/ResourceApplyRMSProp"
  input: "^local_1/RMSProp/update_global/policy/rnn/LinearWrapper/multi_rnn_cell/cell_1/basic_lstm_cell/bias/ResourceApplyRMSProp"
  input: "^local_1/RMSProp/update_global/policy/rnn/LinearWrapper/multi_rnn_cell/cell_1/basic_lstm_cell/kernel/ResourceApplyRMSProp"
  input: "^local_1/RMSProp/update_global/policy/rnn/LinearWrapper/w_output/ResourceApplyRMSProp"
  device: "/device:CPU:0"
}
node {
  name: "local_1/RMSProp/Const"
  op: "Const"
  input: "^local_1/RMSProp/update"
  device: "/device:CPU:0"
  attr {
    key: "_class"
    value {
      list {
        s: "loc:@global/global_step"
      }
    }
  }
  attr {
    key: "_output_shapes"
    value {
      list {
        shape {
        }
      }
    }
  }
  attr {
    key: "dtype"
    value {
      type: DT_INT64
    }
  }
  attr {
    key: "value"
    value {
      tensor {
        dtype: DT_INT64
        tensor_shape {
        }
        int64_val: 1
      }
    }
  }
}
node {
  name: "local_1/RMSProp"
  op: "AssignAddVariableOp"
  input: "global/global_step"
  input: "local_1/RMSProp/Const"
  device: "/device:CPU:0"
  attr {
    key: "_class"
    value {
      list {
        s: "loc:@global/global_step"
      }
    }
  }
  attr {
    key: "dtype"
    value {
      type: DT_INT64
    }
  }
}
node {
  name: "local_1/init"
  op: "NoOp"
  input: "^local/global/obs_embed/embeddings/RMSProp/Assign"
  input: "^local/global/obs_embed/embeddings/RMSProp_1/Assign"
  input: "^local/global/policy/rnn/LinearWrapper/multi_rnn_cell/cell_0/basic_lstm_cell/bias/RMSProp/Assign"
  input: "^local/global/policy/rnn/LinearWrapper/multi_rnn_cell/cell_0/basic_lstm_cell/bias/RMSProp_1/Assign"
  input: "^local/global/policy/rnn/LinearWrapper/multi_rnn_cell/cell_0/basic_lstm_cell/kernel/RMSProp/Assign"
  input: "^local/global/policy/rnn/LinearWrapper/multi_rnn_cell/cell_0/basic_lstm_cell/kernel/RMSProp_1/Assign"
  input: "^local/global/policy/rnn/LinearWrapper/multi_rnn_cell/cell_1/basic_lstm_cell/bias/RMSProp/Assign"
  input: "^local/global/policy/rnn/LinearWrapper/multi_rnn_cell/cell_1/basic_lstm_cell/bias/RMSProp_1/Assign"
  input: "^local/global/policy/rnn/LinearWrapper/multi_rnn_cell/cell_1/basic_lstm_cell/kernel/RMSProp/Assign"
  input: "^local/global/policy/rnn/LinearWrapper/multi_rnn_cell/cell_1/basic_lstm_cell/kernel/RMSProp_1/Assign"
  input: "^local/global/policy/rnn/LinearWrapper/w_output/RMSProp/Assign"
  input: "^local/global/policy/rnn/LinearWrapper/w_output/RMSProp_1/Assign"
  input: "^local/obs_embed/embeddings/Assign"
  input: "^local/policy/rnn/LinearWrapper/multi_rnn_cell/cell_0/basic_lstm_cell/bias/Assign"
  input: "^local/policy/rnn/LinearWrapper/multi_rnn_cell/cell_0/basic_lstm_cell/kernel/Assign"
  input: "^local/policy/rnn/LinearWrapper/multi_rnn_cell/cell_1/basic_lstm_cell/bias/Assign"
  input: "^local/policy/rnn/LinearWrapper/multi_rnn_cell/cell_1/basic_lstm_cell/kernel/Assign"
  input: "^local/policy/rnn/LinearWrapper/w_output/Assign"
  device: "/device:CPU:0"
}
node {
  name: "report_uninitialized_variables/VarIsInitializedOp"
  op: "VarIsInitializedOp"
  input: "global/obs_embed/embeddings"
  attr {
    key: "_output_shapes"
    value {
      list {
        shape {
        }
      }
    }
  }
}
node {
  name: "report_uninitialized_variables/VarIsInitializedOp_1"
  op: "VarIsInitializedOp"
  input: "global/policy/rnn/LinearWrapper/multi_rnn_cell/cell_0/basic_lstm_cell/kernel"
  attr {
    key: "_output_shapes"
    value {
      list {
        shape {
        }
      }
    }
  }
}
node {
  name: "report_uninitialized_variables/VarIsInitializedOp_2"
  op: "VarIsInitializedOp"
  input: "global/policy/rnn/LinearWrapper/multi_rnn_cell/cell_0/basic_lstm_cell/bias"
  attr {
    key: "_output_shapes"
    value {
      list {
        shape {
        }
      }
    }
  }
}
node {
  name: "report_uninitialized_variables/VarIsInitializedOp_3"
  op: "VarIsInitializedOp"
  input: "global/policy/rnn/LinearWrapper/multi_rnn_cell/cell_1/basic_lstm_cell/kernel"
  attr {
    key: "_output_shapes"
    value {
      list {
        shape {
        }
      }
    }
  }
}
node {
  name: "report_uninitialized_variables/VarIsInitializedOp_4"
  op: "VarIsInitializedOp"
  input: "global/policy/rnn/LinearWrapper/multi_rnn_cell/cell_1/basic_lstm_cell/bias"
  attr {
    key: "_output_shapes"
    value {
      list {
        shape {
        }
      }
    }
  }
}
node {
  name: "report_uninitialized_variables/VarIsInitializedOp_5"
  op: "VarIsInitializedOp"
  input: "global/policy/rnn/LinearWrapper/w_output"
  attr {
    key: "_output_shapes"
    value {
      list {
        shape {
        }
      }
    }
  }
}
node {
  name: "report_uninitialized_variables/VarIsInitializedOp_6"
  op: "VarIsInitializedOp"
  input: "global/global_step"
  attr {
    key: "_output_shapes"
    value {
      list {
        shape {
        }
      }
    }
  }
}
node {
  name: "report_uninitialized_variables/VarIsInitializedOp_7"
  op: "VarIsInitializedOp"
  input: "global/global_best_reward"
  attr {
    key: "_output_shapes"
    value {
      list {
        shape {
        }
      }
    }
  }
}
node {
  name: "report_uninitialized_variables/VarIsInitializedOp_8"
  op: "VarIsInitializedOp"
  input: "global/is_best_model"
  attr {
    key: "_output_shapes"
    value {
      list {
        shape {
        }
      }
    }
  }
}
node {
  name: "report_uninitialized_variables/VarIsInitializedOp_9"
  op: "VarIsInitializedOp"
  input: "global/run_number"
  attr {
    key: "_output_shapes"
    value {
      list {
        shape {
        }
      }
    }
  }
}
node {
  name: "report_uninitialized_variables/VarIsInitializedOp_10"
  op: "VarIsInitializedOp"
  input: "global/program_count"
  attr {
    key: "_output_shapes"
    value {
      list {
        shape {
        }
      }
    }
  }
}
node {
  name: "report_uninitialized_variables/stack"
  op: "Pack"
  input: "report_uninitialized_variables/VarIsInitializedOp"
  input: "report_uninitialized_variables/VarIsInitializedOp_1"
  input: "report_uninitialized_variables/VarIsInitializedOp_2"
  input: "report_uninitialized_variables/VarIsInitializedOp_3"
  input: "report_uninitialized_variables/VarIsInitializedOp_4"
  input: "report_uninitialized_variables/VarIsInitializedOp_5"
  input: "report_uninitialized_variables/VarIsInitializedOp_6"
  input: "report_uninitialized_variables/VarIsInitializedOp_7"
  input: "report_uninitialized_variables/VarIsInitializedOp_8"
  input: "report_uninitialized_variables/VarIsInitializedOp_9"
  input: "report_uninitialized_variables/VarIsInitializedOp_10"
  device: "/device:CPU:0"
  attr {
    key: "N"
    value {
      i: 11
    }
  }
  attr {
    key: "T"
    value {
      type: DT_BOOL
    }
  }
  attr {
    key: "_output_shapes"
    value {
      list {
        shape {
          dim {
            size: 11
          }
        }
      }
    }
  }
  attr {
    key: "axis"
    value {
      i: 0
    }
  }
}
node {
  name: "report_uninitialized_variables/LogicalNot"
  op: "LogicalNot"
  input: "report_uninitialized_variables/stack"
  device: "/device:CPU:0"
  attr {
    key: "_output_shapes"
    value {
      list {
        shape {
          dim {
            size: 11
          }
        }
      }
    }
  }
}
node {
  name: "report_uninitialized_variables/Const"
  op: "Const"
  device: "/device:CPU:0"
  attr {
    key: "_output_shapes"
    value {
      list {
        shape {
          dim {
            size: 11
          }
        }
      }
    }
  }
  attr {
    key: "dtype"
    value {
      type: DT_STRING
    }
  }
  attr {
    key: "value"
    value {
      tensor {
        dtype: DT_STRING
        tensor_shape {
          dim {
            size: 11
          }
        }
        string_val: "global/obs_embed/embeddings"
        string_val: "global/policy/rnn/LinearWrapper/multi_rnn_cell/cell_0/basic_lstm_cell/kernel"
        string_val: "global/policy/rnn/LinearWrapper/multi_rnn_cell/cell_0/basic_lstm_cell/bias"
        string_val: "global/policy/rnn/LinearWrapper/multi_rnn_cell/cell_1/basic_lstm_cell/kernel"
        string_val: "global/policy/rnn/LinearWrapper/multi_rnn_cell/cell_1/basic_lstm_cell/bias"
        string_val: "global/policy/rnn/LinearWrapper/w_output"
        string_val: "global/global_step"
        string_val: "global/global_best_reward"
        string_val: "global/is_best_model"
        string_val: "global/run_number"
        string_val: "global/program_count"
      }
    }
  }
}
node {
  name: "report_uninitialized_variables/boolean_mask/Shape"
  op: "Const"
  device: "/device:CPU:0"
  attr {
    key: "_output_shapes"
    value {
      list {
        shape {
          dim {
            size: 1
          }
        }
      }
    }
  }
  attr {
    key: "dtype"
    value {
      type: DT_INT32
    }
  }
  attr {
    key: "value"
    value {
      tensor {
        dtype: DT_INT32
        tensor_shape {
          dim {
            size: 1
          }
        }
        int_val: 11
      }
    }
  }
}
node {
  name: "report_uninitialized_variables/boolean_mask/strided_slice/stack"
  op: "Const"
  device: "/device:CPU:0"
  attr {
    key: "_output_shapes"
    value {
      list {
        shape {
          dim {
            size: 1
          }
        }
      }
    }
  }
  attr {
    key: "dtype"
    value {
      type: DT_INT32
    }
  }
  attr {
    key: "value"
    value {
      tensor {
        dtype: DT_INT32
        tensor_shape {
          dim {
            size: 1
          }
        }
        int_val: 0
      }
    }
  }
}
node {
  name: "report_uninitialized_variables/boolean_mask/strided_slice/stack_1"
  op: "Const"
  device: "/device:CPU:0"
  attr {
    key: "_output_shapes"
    value {
      list {
        shape {
          dim {
            size: 1
          }
        }
      }
    }
  }
  attr {
    key: "dtype"
    value {
      type: DT_INT32
    }
  }
  attr {
    key: "value"
    value {
      tensor {
        dtype: DT_INT32
        tensor_shape {
          dim {
            size: 1
          }
        }
        int_val: 1
      }
    }
  }
}
node {
  name: "report_uninitialized_variables/boolean_mask/strided_slice/stack_2"
  op: "Const"
  device: "/device:CPU:0"
  attr {
    key: "_output_shapes"
    value {
      list {
        shape {
          dim {
            size: 1
          }
        }
      }
    }
  }
  attr {
    key: "dtype"
    value {
      type: DT_INT32
    }
  }
  attr {
    key: "value"
    value {
      tensor {
        dtype: DT_INT32
        tensor_shape {
          dim {
            size: 1
          }
        }
        int_val: 1
      }
    }
  }
}
node {
  name: "report_uninitialized_variables/boolean_mask/strided_slice"
  op: "StridedSlice"
  input: "report_uninitialized_variables/boolean_mask/Shape"
  input: "report_uninitialized_variables/boolean_mask/strided_slice/stack"
  input: "report_uninitialized_variables/boolean_mask/strided_slice/stack_1"
  input: "report_uninitialized_variables/boolean_mask/strided_slice/stack_2"
  device: "/device:CPU:0"
  attr {
    key: "Index"
    value {
      type: DT_INT32
    }
  }
  attr {
    key: "T"
    value {
      type: DT_INT32
    }
  }
  attr {
    key: "_output_shapes"
    value {
      list {
        shape {
          dim {
            size: 1
          }
        }
      }
    }
  }
  attr {
    key: "begin_mask"
    value {
      i: 0
    }
  }
  attr {
    key: "ellipsis_mask"
    value {
      i: 0
    }
  }
  attr {
    key: "end_mask"
    value {
      i: 0
    }
  }
  attr {
    key: "new_axis_mask"
    value {
      i: 0
    }
  }
  attr {
    key: "shrink_axis_mask"
    value {
      i: 0
    }
  }
}
node {
  name: "report_uninitialized_variables/boolean_mask/Prod/reduction_indices"
  op: "Const"
  device: "/device:CPU:0"
  attr {
    key: "_output_shapes"
    value {
      list {
        shape {
          dim {
            size: 1
          }
        }
      }
    }
  }
  attr {
    key: "dtype"
    value {
      type: DT_INT32
    }
  }
  attr {
    key: "value"
    value {
      tensor {
        dtype: DT_INT32
        tensor_shape {
          dim {
            size: 1
          }
        }
        int_val: 0
      }
    }
  }
}
node {
  name: "report_uninitialized_variables/boolean_mask/Prod"
  op: "Prod"
  input: "report_uninitialized_variables/boolean_mask/strided_slice"
  input: "report_uninitialized_variables/boolean_mask/Prod/reduction_indices"
  device: "/device:CPU:0"
  attr {
    key: "T"
    value {
      type: DT_INT32
    }
  }
  attr {
    key: "Tidx"
    value {
      type: DT_INT32
    }
  }
  attr {
    key: "_output_shapes"
    value {
      list {
        shape {
        }
      }
    }
  }
  attr {
    key: "keep_dims"
    value {
      b: false
    }
  }
}
node {
  name: "report_uninitialized_variables/boolean_mask/Shape_1"
  op: "Const"
  device: "/device:CPU:0"
  attr {
    key: "_output_shapes"
    value {
      list {
        shape {
          dim {
            size: 1
          }
        }
      }
    }
  }
  attr {
    key: "dtype"
    value {
      type: DT_INT32
    }
  }
  attr {
    key: "value"
    value {
      tensor {
        dtype: DT_INT32
        tensor_shape {
          dim {
            size: 1
          }
        }
        int_val: 11
      }
    }
  }
}
node {
  name: "report_uninitialized_variables/boolean_mask/strided_slice_1/stack"
  op: "Const"
  device: "/device:CPU:0"
  attr {
    key: "_output_shapes"
    value {
      list {
        shape {
          dim {
            size: 1
          }
        }
      }
    }
  }
  attr {
    key: "dtype"
    value {
      type: DT_INT32
    }
  }
  attr {
    key: "value"
    value {
      tensor {
        dtype: DT_INT32
        tensor_shape {
          dim {
            size: 1
          }
        }
        int_val: 0
      }
    }
  }
}
node {
  name: "report_uninitialized_variables/boolean_mask/strided_slice_1/stack_1"
  op: "Const"
  device: "/device:CPU:0"
  attr {
    key: "_output_shapes"
    value {
      list {
        shape {
          dim {
            size: 1
          }
        }
      }
    }
  }
  attr {
    key: "dtype"
    value {
      type: DT_INT32
    }
  }
  attr {
    key: "value"
    value {
      tensor {
        dtype: DT_INT32
        tensor_shape {
          dim {
            size: 1
          }
        }
        int_val: 0
      }
    }
  }
}
node {
  name: "report_uninitialized_variables/boolean_mask/strided_slice_1/stack_2"
  op: "Const"
  device: "/device:CPU:0"
  attr {
    key: "_output_shapes"
    value {
      list {
        shape {
          dim {
            size: 1
          }
        }
      }
    }
  }
  attr {
    key: "dtype"
    value {
      type: DT_INT32
    }
  }
  attr {
    key: "value"
    value {
      tensor {
        dtype: DT_INT32
        tensor_shape {
          dim {
            size: 1
          }
        }
        int_val: 1
      }
    }
  }
}
node {
  name: "report_uninitialized_variables/boolean_mask/strided_slice_1"
  op: "StridedSlice"
  input: "report_uninitialized_variables/boolean_mask/Shape_1"
  input: "report_uninitialized_variables/boolean_mask/strided_slice_1/stack"
  input: "report_uninitialized_variables/boolean_mask/strided_slice_1/stack_1"
  input: "report_uninitialized_variables/boolean_mask/strided_slice_1/stack_2"
  device: "/device:CPU:0"
  attr {
    key: "Index"
    value {
      type: DT_INT32
    }
  }
  attr {
    key: "T"
    value {
      type: DT_INT32
    }
  }
  attr {
    key: "_output_shapes"
    value {
      list {
        shape {
          dim {
          }
        }
      }
    }
  }
  attr {
    key: "begin_mask"
    value {
      i: 1
    }
  }
  attr {
    key: "ellipsis_mask"
    value {
      i: 0
    }
  }
  attr {
    key: "end_mask"
    value {
      i: 0
    }
  }
  attr {
    key: "new_axis_mask"
    value {
      i: 0
    }
  }
  attr {
    key: "shrink_axis_mask"
    value {
      i: 0
    }
  }
}
node {
  name: "report_uninitialized_variables/boolean_mask/Shape_2"
  op: "Const"
  device: "/device:CPU:0"
  attr {
    key: "_output_shapes"
    value {
      list {
        shape {
          dim {
            size: 1
          }
        }
      }
    }
  }
  attr {
    key: "dtype"
    value {
      type: DT_INT32
    }
  }
  attr {
    key: "value"
    value {
      tensor {
        dtype: DT_INT32
        tensor_shape {
          dim {
            size: 1
          }
        }
        int_val: 11
      }
    }
  }
}
node {
  name: "report_uninitialized_variables/boolean_mask/strided_slice_2/stack"
  op: "Const"
  device: "/device:CPU:0"
  attr {
    key: "_output_shapes"
    value {
      list {
        shape {
          dim {
            size: 1
          }
        }
      }
    }
  }
  attr {
    key: "dtype"
    value {
      type: DT_INT32
    }
  }
  attr {
    key: "value"
    value {
      tensor {
        dtype: DT_INT32
        tensor_shape {
          dim {
            size: 1
          }
        }
        int_val: 1
      }
    }
  }
}
node {
  name: "report_uninitialized_variables/boolean_mask/strided_slice_2/stack_1"
  op: "Const"
  device: "/device:CPU:0"
  attr {
    key: "_output_shapes"
    value {
      list {
        shape {
          dim {
            size: 1
          }
        }
      }
    }
  }
  attr {
    key: "dtype"
    value {
      type: DT_INT32
    }
  }
  attr {
    key: "value"
    value {
      tensor {
        dtype: DT_INT32
        tensor_shape {
          dim {
            size: 1
          }
        }
        int_val: 0
      }
    }
  }
}
node {
  name: "report_uninitialized_variables/boolean_mask/strided_slice_2/stack_2"
  op: "Const"
  device: "/device:CPU:0"
  attr {
    key: "_output_shapes"
    value {
      list {
        shape {
          dim {
            size: 1
          }
        }
      }
    }
  }
  attr {
    key: "dtype"
    value {
      type: DT_INT32
    }
  }
  attr {
    key: "value"
    value {
      tensor {
        dtype: DT_INT32
        tensor_shape {
          dim {
            size: 1
          }
        }
        int_val: 1
      }
    }
  }
}
node {
  name: "report_uninitialized_variables/boolean_mask/strided_slice_2"
  op: "StridedSlice"
  input: "report_uninitialized_variables/boolean_mask/Shape_2"
  input: "report_uninitialized_variables/boolean_mask/strided_slice_2/stack"
  input: "report_uninitialized_variables/boolean_mask/strided_slice_2/stack_1"
  input: "report_uninitialized_variables/boolean_mask/strided_slice_2/stack_2"
  device: "/device:CPU:0"
  attr {
    key: "Index"
    value {
      type: DT_INT32
    }
  }
  attr {
    key: "T"
    value {
      type: DT_INT32
    }
  }
  attr {
    key: "_output_shapes"
    value {
      list {
        shape {
          dim {
          }
        }
      }
    }
  }
  attr {
    key: "begin_mask"
    value {
      i: 0
    }
  }
  attr {
    key: "ellipsis_mask"
    value {
      i: 0
    }
  }
  attr {
    key: "end_mask"
    value {
      i: 1
    }
  }
  attr {
    key: "new_axis_mask"
    value {
      i: 0
    }
  }
  attr {
    key: "shrink_axis_mask"
    value {
      i: 0
    }
  }
}
node {
  name: "report_uninitialized_variables/boolean_mask/concat/values_1"
  op: "Pack"
  input: "report_uninitialized_variables/boolean_mask/Prod"
  device: "/device:CPU:0"
  attr {
    key: "N"
    value {
      i: 1
    }
  }
  attr {
    key: "T"
    value {
      type: DT_INT32
    }
  }
  attr {
    key: "_output_shapes"
    value {
      list {
        shape {
          dim {
            size: 1
          }
        }
      }
    }
  }
  attr {
    key: "axis"
    value {
      i: 0
    }
  }
}
node {
  name: "report_uninitialized_variables/boolean_mask/concat/axis"
  op: "Const"
  device: "/device:CPU:0"
  attr {
    key: "_output_shapes"
    value {
      list {
        shape {
        }
      }
    }
  }
  attr {
    key: "dtype"
    value {
      type: DT_INT32
    }
  }
  attr {
    key: "value"
    value {
      tensor {
        dtype: DT_INT32
        tensor_shape {
        }
        int_val: 0
      }
    }
  }
}
node {
  name: "report_uninitialized_variables/boolean_mask/concat"
  op: "ConcatV2"
  input: "report_uninitialized_variables/boolean_mask/strided_slice_1"
  input: "report_uninitialized_variables/boolean_mask/concat/values_1"
  input: "report_uninitialized_variables/boolean_mask/strided_slice_2"
  input: "report_uninitialized_variables/boolean_mask/concat/axis"
  device: "/device:CPU:0"
  attr {
    key: "N"
    value {
      i: 3
    }
  }
  attr {
    key: "T"
    value {
      type: DT_INT32
    }
  }
  attr {
    key: "Tidx"
    value {
      type: DT_INT32
    }
  }
  attr {
    key: "_output_shapes"
    value {
      list {
        shape {
          dim {
            size: 1
          }
        }
      }
    }
  }
}
node {
  name: "report_uninitialized_variables/boolean_mask/Reshape"
  op: "Reshape"
  input: "report_uninitialized_variables/Const"
  input: "report_uninitialized_variables/boolean_mask/concat"
  device: "/device:CPU:0"
  attr {
    key: "T"
    value {
      type: DT_STRING
    }
  }
  attr {
    key: "Tshape"
    value {
      type: DT_INT32
    }
  }
  attr {
    key: "_output_shapes"
    value {
      list {
        shape {
          dim {
            size: 11
          }
        }
      }
    }
  }
}
node {
  name: "report_uninitialized_variables/boolean_mask/Reshape_1/shape"
  op: "Const"
  device: "/device:CPU:0"
  attr {
    key: "_output_shapes"
    value {
      list {
        shape {
          dim {
            size: 1
          }
        }
      }
    }
  }
  attr {
    key: "dtype"
    value {
      type: DT_INT32
    }
  }
  attr {
    key: "value"
    value {
      tensor {
        dtype: DT_INT32
        tensor_shape {
          dim {
            size: 1
          }
        }
        int_val: -1
      }
    }
  }
}
node {
  name: "report_uninitialized_variables/boolean_mask/Reshape_1"
  op: "Reshape"
  input: "report_uninitialized_variables/LogicalNot"
  input: "report_uninitialized_variables/boolean_mask/Reshape_1/shape"
  device: "/device:CPU:0"
  attr {
    key: "T"
    value {
      type: DT_BOOL
    }
  }
  attr {
    key: "Tshape"
    value {
      type: DT_INT32
    }
  }
  attr {
    key: "_output_shapes"
    value {
      list {
        shape {
          dim {
            size: 11
          }
        }
      }
    }
  }
}
node {
  name: "report_uninitialized_variables/boolean_mask/Where"
  op: "Where"
  input: "report_uninitialized_variables/boolean_mask/Reshape_1"
  device: "/device:CPU:0"
  attr {
    key: "T"
    value {
      type: DT_BOOL
    }
  }
  attr {
    key: "_output_shapes"
    value {
      list {
        shape {
          dim {
            size: -1
          }
          dim {
            size: 1
          }
        }
      }
    }
  }
}
node {
  name: "report_uninitialized_variables/boolean_mask/Squeeze"
  op: "Squeeze"
  input: "report_uninitialized_variables/boolean_mask/Where"
  device: "/device:CPU:0"
  attr {
    key: "T"
    value {
      type: DT_INT64
    }
  }
  attr {
    key: "_output_shapes"
    value {
      list {
        shape {
          dim {
            size: -1
          }
        }
      }
    }
  }
  attr {
    key: "squeeze_dims"
    value {
      list {
        i: 1
      }
    }
  }
}
node {
  name: "report_uninitialized_variables/boolean_mask/GatherV2/axis"
  op: "Const"
  device: "/device:CPU:0"
  attr {
    key: "_output_shapes"
    value {
      list {
        shape {
        }
      }
    }
  }
  attr {
    key: "dtype"
    value {
      type: DT_INT32
    }
  }
  attr {
    key: "value"
    value {
      tensor {
        dtype: DT_INT32
        tensor_shape {
        }
        int_val: 0
      }
    }
  }
}
node {
  name: "report_uninitialized_variables/boolean_mask/GatherV2"
  op: "GatherV2"
  input: "report_uninitialized_variables/boolean_mask/Reshape"
  input: "report_uninitialized_variables/boolean_mask/Squeeze"
  input: "report_uninitialized_variables/boolean_mask/GatherV2/axis"
  device: "/device:CPU:0"
  attr {
    key: "Taxis"
    value {
      type: DT_INT32
    }
  }
  attr {
    key: "Tindices"
    value {
      type: DT_INT64
    }
  }
  attr {
    key: "Tparams"
    value {
      type: DT_STRING
    }
  }
  attr {
    key: "_output_shapes"
    value {
      list {
        shape {
          dim {
            size: -1
          }
        }
      }
    }
  }
  attr {
    key: "batch_dims"
    value {
      i: 0
    }
  }
}
node {
  name: "init"
  op: "NoOp"
  input: "^global/global_best_reward/Assign"
  input: "^global/global_step/Assign"
  input: "^global/is_best_model/Assign"
  input: "^global/obs_embed/embeddings/Assign"
  input: "^global/policy/rnn/LinearWrapper/multi_rnn_cell/cell_0/basic_lstm_cell/bias/Assign"
  input: "^global/policy/rnn/LinearWrapper/multi_rnn_cell/cell_0/basic_lstm_cell/kernel/Assign"
  input: "^global/policy/rnn/LinearWrapper/multi_rnn_cell/cell_1/basic_lstm_cell/bias/Assign"
  input: "^global/policy/rnn/LinearWrapper/multi_rnn_cell/cell_1/basic_lstm_cell/kernel/Assign"
  input: "^global/policy/rnn/LinearWrapper/w_output/Assign"
  input: "^global/program_count/Assign"
  input: "^global/run_number/Assign"
  device: "/device:CPU:0"
}
node {
  name: "save/filename/input"
  op: "Const"
  attr {
    key: "_output_shapes"
    value {
      list {
        shape {
        }
      }
    }
  }
  attr {
    key: "dtype"
    value {
      type: DT_STRING
    }
  }
  attr {
    key: "value"
    value {
      tensor {
        dtype: DT_STRING
        tensor_shape {
        }
        string_val: "model"
      }
    }
  }
}
node {
  name: "save/filename"
  op: "PlaceholderWithDefault"
  input: "save/filename/input"
  attr {
    key: "_output_shapes"
    value {
      list {
        shape {
        }
      }
    }
  }
  attr {
    key: "dtype"
    value {
      type: DT_STRING
    }
  }
  attr {
    key: "shape"
    value {
      shape {
      }
    }
  }
}
node {
  name: "save/Const"
  op: "PlaceholderWithDefault"
  input: "save/filename"
  attr {
    key: "_output_shapes"
    value {
      list {
        shape {
        }
      }
    }
  }
  attr {
    key: "dtype"
    value {
      type: DT_STRING
    }
  }
  attr {
    key: "shape"
    value {
      shape {
      }
    }
  }
}
node {
  name: "save/SaveV2/tensor_names"
  op: "Const"
  attr {
    key: "_output_shapes"
    value {
      list {
        shape {
          dim {
            size: 11
          }
        }
      }
    }
  }
  attr {
    key: "dtype"
    value {
      type: DT_STRING
    }
  }
  attr {
    key: "value"
    value {
      tensor {
        dtype: DT_STRING
        tensor_shape {
          dim {
            size: 11
          }
        }
        string_val: "global/global_best_reward"
        string_val: "global/global_step"
        string_val: "global/is_best_model"
        string_val: "global/obs_embed/embeddings"
        string_val: "global/policy/rnn/LinearWrapper/multi_rnn_cell/cell_0/basic_lstm_cell/bias"
        string_val: "global/policy/rnn/LinearWrapper/multi_rnn_cell/cell_0/basic_lstm_cell/kernel"
        string_val: "global/policy/rnn/LinearWrapper/multi_rnn_cell/cell_1/basic_lstm_cell/bias"
        string_val: "global/policy/rnn/LinearWrapper/multi_rnn_cell/cell_1/basic_lstm_cell/kernel"
        string_val: "global/policy/rnn/LinearWrapper/w_output"
        string_val: "global/program_count"
        string_val: "global/run_number"
      }
    }
  }
}
node {
  name: "save/SaveV2/shape_and_slices"
  op: "Const"
  attr {
    key: "_output_shapes"
    value {
      list {
        shape {
          dim {
            size: 11
          }
        }
      }
    }
  }
  attr {
    key: "dtype"
    value {
      type: DT_STRING
    }
  }
  attr {
    key: "value"
    value {
      tensor {
        dtype: DT_STRING
        tensor_shape {
          dim {
            size: 11
          }
        }
        string_val: ""
        string_val: ""
        string_val: ""
        string_val: ""
        string_val: ""
        string_val: ""
        string_val: ""
        string_val: ""
        string_val: ""
        string_val: ""
        string_val: ""
      }
    }
  }
}
node {
  name: "save/SaveV2"
  op: "SaveV2"
  input: "save/Const"
  input: "save/SaveV2/tensor_names"
  input: "save/SaveV2/shape_and_slices"
  input: "global/global_best_reward/Read/ReadVariableOp"
  input: "global/global_step/Read/ReadVariableOp"
  input: "global/is_best_model/Read/ReadVariableOp"
  input: "global/obs_embed/embeddings/Read/ReadVariableOp"
  input: "global/policy/rnn/LinearWrapper/multi_rnn_cell/cell_0/basic_lstm_cell/bias/Read/ReadVariableOp"
  input: "global/policy/rnn/LinearWrapper/multi_rnn_cell/cell_0/basic_lstm_cell/kernel/Read/ReadVariableOp"
  input: "global/policy/rnn/LinearWrapper/multi_rnn_cell/cell_1/basic_lstm_cell/bias/Read/ReadVariableOp"
  input: "global/policy/rnn/LinearWrapper/multi_rnn_cell/cell_1/basic_lstm_cell/kernel/Read/ReadVariableOp"
  input: "global/policy/rnn/LinearWrapper/w_output/Read/ReadVariableOp"
  input: "global/program_count/Read/ReadVariableOp"
  input: "global/run_number/Read/ReadVariableOp"
  attr {
    key: "dtypes"
    value {
      list {
        type: DT_DOUBLE
        type: DT_INT64
        type: DT_BOOL
        type: DT_FLOAT
        type: DT_FLOAT
        type: DT_FLOAT
        type: DT_FLOAT
        type: DT_FLOAT
        type: DT_FLOAT
        type: DT_INT64
        type: DT_INT32
      }
    }
  }
}
node {
  name: "save/control_dependency"
  op: "Identity"
  input: "save/Const"
  input: "^save/SaveV2"
  attr {
    key: "T"
    value {
      type: DT_STRING
    }
  }
  attr {
    key: "_class"
    value {
      list {
        s: "loc:@save/Const"
      }
    }
  }
  attr {
    key: "_output_shapes"
    value {
      list {
        shape {
        }
      }
    }
  }
}
node {
  name: "save/RestoreV2/tensor_names"
  op: "Const"
  device: "/device:CPU:0"
  attr {
    key: "_output_shapes"
    value {
      list {
        shape {
          dim {
            size: 11
          }
        }
      }
    }
  }
  attr {
    key: "dtype"
    value {
      type: DT_STRING
    }
  }
  attr {
    key: "value"
    value {
      tensor {
        dtype: DT_STRING
        tensor_shape {
          dim {
            size: 11
          }
        }
        string_val: "global/global_best_reward"
        string_val: "global/global_step"
        string_val: "global/is_best_model"
        string_val: "global/obs_embed/embeddings"
        string_val: "global/policy/rnn/LinearWrapper/multi_rnn_cell/cell_0/basic_lstm_cell/bias"
        string_val: "global/policy/rnn/LinearWrapper/multi_rnn_cell/cell_0/basic_lstm_cell/kernel"
        string_val: "global/policy/rnn/LinearWrapper/multi_rnn_cell/cell_1/basic_lstm_cell/bias"
        string_val: "global/policy/rnn/LinearWrapper/multi_rnn_cell/cell_1/basic_lstm_cell/kernel"
        string_val: "global/policy/rnn/LinearWrapper/w_output"
        string_val: "global/program_count"
        string_val: "global/run_number"
      }
    }
  }
}
node {
  name: "save/RestoreV2/shape_and_slices"
  op: "Const"
  device: "/device:CPU:0"
  attr {
    key: "_output_shapes"
    value {
      list {
        shape {
          dim {
            size: 11
          }
        }
      }
    }
  }
  attr {
    key: "dtype"
    value {
      type: DT_STRING
    }
  }
  attr {
    key: "value"
    value {
      tensor {
        dtype: DT_STRING
        tensor_shape {
          dim {
            size: 11
          }
        }
        string_val: ""
        string_val: ""
        string_val: ""
        string_val: ""
        string_val: ""
        string_val: ""
        string_val: ""
        string_val: ""
        string_val: ""
        string_val: ""
        string_val: ""
      }
    }
  }
}
node {
  name: "save/RestoreV2"
  op: "RestoreV2"
  input: "save/Const"
  input: "save/RestoreV2/tensor_names"
  input: "save/RestoreV2/shape_and_slices"
  device: "/device:CPU:0"
  attr {
    key: "_output_shapes"
    value {
      list {
        shape {
          unknown_rank: true
        }
        shape {
          unknown_rank: true
        }
        shape {
          unknown_rank: true
        }
        shape {
          unknown_rank: true
        }
        shape {
          unknown_rank: true
        }
        shape {
          unknown_rank: true
        }
        shape {
          unknown_rank: true
        }
        shape {
          unknown_rank: true
        }
        shape {
          unknown_rank: true
        }
        shape {
          unknown_rank: true
        }
        shape {
          unknown_rank: true
        }
      }
    }
  }
  attr {
    key: "dtypes"
    value {
      list {
        type: DT_DOUBLE
        type: DT_INT64
        type: DT_BOOL
        type: DT_FLOAT
        type: DT_FLOAT
        type: DT_FLOAT
        type: DT_FLOAT
        type: DT_FLOAT
        type: DT_FLOAT
        type: DT_INT64
        type: DT_INT32
      }
    }
  }
}
node {
  name: "save/Identity"
  op: "Identity"
  input: "save/RestoreV2"
  device: "/device:CPU:0"
  attr {
    key: "T"
    value {
      type: DT_DOUBLE
    }
  }
  attr {
    key: "_output_shapes"
    value {
      list {
        shape {
          unknown_rank: true
        }
      }
    }
  }
}
node {
  name: "save/AssignVariableOp"
  op: "AssignVariableOp"
  input: "global/global_best_reward"
  input: "save/Identity"
  device: "/device:CPU:0"
  attr {
    key: "dtype"
    value {
      type: DT_DOUBLE
    }
  }
}
node {
  name: "save/Identity_1"
  op: "Identity"
  input: "save/RestoreV2:1"
  device: "/device:CPU:0"
  attr {
    key: "T"
    value {
      type: DT_INT64
    }
  }
  attr {
    key: "_output_shapes"
    value {
      list {
        shape {
          unknown_rank: true
        }
      }
    }
  }
}
node {
  name: "save/AssignVariableOp_1"
  op: "AssignVariableOp"
  input: "global/global_step"
  input: "save/Identity_1"
  device: "/device:CPU:0"
  attr {
    key: "dtype"
    value {
      type: DT_INT64
    }
  }
}
node {
  name: "save/Identity_2"
  op: "Identity"
  input: "save/RestoreV2:2"
  device: "/device:CPU:0"
  attr {
    key: "T"
    value {
      type: DT_BOOL
    }
  }
  attr {
    key: "_output_shapes"
    value {
      list {
        shape {
          unknown_rank: true
        }
      }
    }
  }
}
node {
  name: "save/AssignVariableOp_2"
  op: "AssignVariableOp"
  input: "global/is_best_model"
  input: "save/Identity_2"
  device: "/device:CPU:0"
  attr {
    key: "dtype"
    value {
      type: DT_BOOL
    }
  }
}
node {
  name: "save/Identity_3"
  op: "Identity"
  input: "save/RestoreV2:3"
  device: "/device:CPU:0"
  attr {
    key: "T"
    value {
      type: DT_FLOAT
    }
  }
  attr {
    key: "_output_shapes"
    value {
      list {
        shape {
          unknown_rank: true
        }
      }
    }
  }
}
node {
  name: "save/AssignVariableOp_3"
  op: "AssignVariableOp"
  input: "global/obs_embed/embeddings"
  input: "save/Identity_3"
  device: "/device:CPU:0"
  attr {
    key: "dtype"
    value {
      type: DT_FLOAT
    }
  }
}
node {
  name: "save/Identity_4"
  op: "Identity"
  input: "save/RestoreV2:4"
  device: "/device:CPU:0"
  attr {
    key: "T"
    value {
      type: DT_FLOAT
    }
  }
  attr {
    key: "_output_shapes"
    value {
      list {
        shape {
          unknown_rank: true
        }
      }
    }
  }
}
node {
  name: "save/AssignVariableOp_4"
  op: "AssignVariableOp"
  input: "global/policy/rnn/LinearWrapper/multi_rnn_cell/cell_0/basic_lstm_cell/bias"
  input: "save/Identity_4"
  device: "/device:CPU:0"
  attr {
    key: "dtype"
    value {
      type: DT_FLOAT
    }
  }
}
node {
  name: "save/Identity_5"
  op: "Identity"
  input: "save/RestoreV2:5"
  device: "/device:CPU:0"
  attr {
    key: "T"
    value {
      type: DT_FLOAT
    }
  }
  attr {
    key: "_output_shapes"
    value {
      list {
        shape {
          unknown_rank: true
        }
      }
    }
  }
}
node {
  name: "save/AssignVariableOp_5"
  op: "AssignVariableOp"
  input: "global/policy/rnn/LinearWrapper/multi_rnn_cell/cell_0/basic_lstm_cell/kernel"
  input: "save/Identity_5"
  device: "/device:CPU:0"
  attr {
    key: "dtype"
    value {
      type: DT_FLOAT
    }
  }
}
node {
  name: "save/Identity_6"
  op: "Identity"
  input: "save/RestoreV2:6"
  device: "/device:CPU:0"
  attr {
    key: "T"
    value {
      type: DT_FLOAT
    }
  }
  attr {
    key: "_output_shapes"
    value {
      list {
        shape {
          unknown_rank: true
        }
      }
    }
  }
}
node {
  name: "save/AssignVariableOp_6"
  op: "AssignVariableOp"
  input: "global/policy/rnn/LinearWrapper/multi_rnn_cell/cell_1/basic_lstm_cell/bias"
  input: "save/Identity_6"
  device: "/device:CPU:0"
  attr {
    key: "dtype"
    value {
      type: DT_FLOAT
    }
  }
}
node {
  name: "save/Identity_7"
  op: "Identity"
  input: "save/RestoreV2:7"
  device: "/device:CPU:0"
  attr {
    key: "T"
    value {
      type: DT_FLOAT
    }
  }
  attr {
    key: "_output_shapes"
    value {
      list {
        shape {
          unknown_rank: true
        }
      }
    }
  }
}
node {
  name: "save/AssignVariableOp_7"
  op: "AssignVariableOp"
  input: "global/policy/rnn/LinearWrapper/multi_rnn_cell/cell_1/basic_lstm_cell/kernel"
  input: "save/Identity_7"
  device: "/device:CPU:0"
  attr {
    key: "dtype"
    value {
      type: DT_FLOAT
    }
  }
}
node {
  name: "save/Identity_8"
  op: "Identity"
  input: "save/RestoreV2:8"
  device: "/device:CPU:0"
  attr {
    key: "T"
    value {
      type: DT_FLOAT
    }
  }
  attr {
    key: "_output_shapes"
    value {
      list {
        shape {
          unknown_rank: true
        }
      }
    }
  }
}
node {
  name: "save/AssignVariableOp_8"
  op: "AssignVariableOp"
  input: "global/policy/rnn/LinearWrapper/w_output"
  input: "save/Identity_8"
  device: "/device:CPU:0"
  attr {
    key: "dtype"
    value {
      type: DT_FLOAT
    }
  }
}
node {
  name: "save/Identity_9"
  op: "Identity"
  input: "save/RestoreV2:9"
  device: "/device:CPU:0"
  attr {
    key: "T"
    value {
      type: DT_INT64
    }
  }
  attr {
    key: "_output_shapes"
    value {
      list {
        shape {
          unknown_rank: true
        }
      }
    }
  }
}
node {
  name: "save/AssignVariableOp_9"
  op: "AssignVariableOp"
  input: "global/program_count"
  input: "save/Identity_9"
  device: "/device:CPU:0"
  attr {
    key: "dtype"
    value {
      type: DT_INT64
    }
  }
}
node {
  name: "save/Identity_10"
  op: "Identity"
  input: "save/RestoreV2:10"
  device: "/device:CPU:0"
  attr {
    key: "T"
    value {
      type: DT_INT32
    }
  }
  attr {
    key: "_output_shapes"
    value {
      list {
        shape {
          unknown_rank: true
        }
      }
    }
  }
}
node {
  name: "save/AssignVariableOp_10"
  op: "AssignVariableOp"
  input: "global/run_number"
  input: "save/Identity_10"
  device: "/device:CPU:0"
  attr {
    key: "dtype"
    value {
      type: DT_INT32
    }
  }
}
node {
  name: "save/restore_all"
  op: "NoOp"
  input: "^save/AssignVariableOp"
  input: "^save/AssignVariableOp_1"
  input: "^save/AssignVariableOp_10"
  input: "^save/AssignVariableOp_2"
  input: "^save/AssignVariableOp_3"
  input: "^save/AssignVariableOp_4"
  input: "^save/AssignVariableOp_5"
  input: "^save/AssignVariableOp_6"
  input: "^save/AssignVariableOp_7"
  input: "^save/AssignVariableOp_8"
  input: "^save/AssignVariableOp_9"
  device: "/device:CPU:0"
}
node {
  name: "init_1"
  op: "NoOp"
}
node {
  name: "init_all_tables"
  op: "NoOp"
}
node {
  name: "group_deps_1"
  op: "NoOp"
  input: "^init_1"
  input: "^init_all_tables"
}
versions {
  producer: 134
}
